models/fixed_target.pt (torch, 30209 bytes, 12 tensors)

fc1.weight f4 [64, 37]
0	0xbe568dd4	-0.2095254
1	0x3cc24e0c	0.023718856
2	0x3e1521e9	0.14563717
3	0xbe427943	-0.1899157
4	0xbc4e0fbe	-0.012576995
5	0xbf43a9b7	-0.7643084
6	0xbea76c43	-0.32699785
7	0x3ea0b8cf	0.31390998
8	0xbeb46759	-0.35235098
9	0xc0214cb5	-2.5203068
10	0xbc8d744c	-0.017267369
11	0x3d81b7d8	0.063338935
12	0x3dc28ca4	0.09499481
13	0xbdb213c8	-0.08695179
14	0xbde324ba	-0.110909894
15	0xbd2ef4e1	-0.042714003
16	0xbe8cde24	-0.2751323
17	0x3e25cdc4	0.16191775
18	0xbe89df2d	-0.26928082
19	0x3ca46939	0.020069705
20	0xbd0a8d23	-0.033826005
21	0xbe222b5e	-0.15836856
22	0xbd943cf0	-0.072381854
23	0xbc5f8841	-0.013643325
24	0x3d6be9d9	0.05759606
25	0xbf3e15a7	-0.7425179
26	0xbde07f86	-0.10961823
27	0x3e2ac634	0.16677171
28	0xbf004d1b	-0.50117654
29	0xc06e7f1f	-3.7265089
30	0x3e016325	0.12635477
31	0xbd395d25	-0.045254845
32	0x3d3e4482	0.046452053
33	0xbe7d08a6	-0.2471033
34	0xbf019b82	-0.5062791
35	0x3e5cc68e	0.21560118
36	0x3d5d0664	0.053961173
37	0x3d912929	0.07087929
38	0x3d9619da	0.073291495
39	0x3d999976	0.074999735
40	0x3d72053d	0.059087027
41	0xbc5cc077	-0.013473622
42	0x3de66a1d	0.11250708
43	0x3d8e213a	0.06939931
44	0x3e254db7	0.16142927
45	0x3dcdd2b3	0.10049953
46	0xbcd99b5b	-0.026563337
47	0x3edf9f44	0.43676198
48	0xbf3e6c09	-0.743836
49	0xbf44b11a	-0.76832736
50	0xbf4603ec	-0.77349734
51	0xc01c107c	-2.4385061
52	0x3d966ace	0.0734459
53	0x3dcb8478	0.09937376
54	0x3dc1d2a0	0.09464002
55	0xbc823349	-0.015893595
56	0xbd57928f	-0.052630004
57	0xbd331b81	-0.0437274
58	0x3d94e531	0.07270277
59	0xbcc65384	-0.024209745
60	0x3e181781	0.14852716
61	0x3db19d4a	0.08672579
62	0x3cabddf1	0.020979853
63	0xbd518754	-0.05115445
64	0x3d4a38b2	0.049370475
65	0x3d827621	0.063701876
66	0x3d1d0883	0.038338196
67	0xbd92bd4b	-0.07165011
68	0xbd57501a	-0.052566625
69	0x3d86b0e9	0.06576712
70	0x3d119c8e	0.035549693
71	0x3e380947	0.17972289
72	0x3c0986cd	0.008393955
73	0xbb5d4ffc	-0.0033769598
74	0xbd89d959	-0.06730909
75	0x3c815cc2	0.0157913
76	0x3cac192e	0.0210081
77	0x3daa52cb	0.08316573
78	0x3d9b2c28	0.075767815
79	0x3f194294	0.59867215
80	0xbf833cb6	-1.0252903
81	0xbf40f664	-0.7537596
82	0xbf51dd02	-0.81977856
83	0xc0184a5f	-2.3795393
84	0x3e24600e	0.16052267
85	0x3e14c509	0.14528288
86	0x3df379f7	0.11888497
87	0x3dd9cf67	0.10635262
88	0xbde5b808	-0.11216742
89	0x3d6a1df4	0.05715747
90	0x3e0a9dec	0.13536805
91	0x3e10a5d6	0.14125761
92	0x3ea588f5	0.32331052
93	0x3e078d96	0.13237604
94	0x3d5e2daf	0.054242786
95	0x3e0d9083	0.13824658
96	0x3e26912a	0.16266313
97	0x3d755d74	0.059903577
98	0xbdbdeec5	-0.09274057
99	0x3b25053f	0.002518013
100	0x3d3a55f9	0.045492146
101	0x3da880a9	0.08227665
102	0x3e199c3c	0.15001005
103	0x3c3f5c14	0.011679668
104	0x3e0dd320	0.13850069
105	0x3d0174fe	0.031605713
106	0x3cef7a3c	0.02923309
107	0x3cce82d2	0.025208864
108	0xbe240c9d	-0.16020437
109	0xbbbeac01	-0.0058188443
110	0x3b24e4b0	0.0025160722
111	0xbe2f916e	-0.17145321
112	0xbdc34221	-0.095340975
113	0xbac3d38c	-0.0014940365
114	0x3da1552c	0.07877573
115	0xbead277a	-0.3381918
116	0xbd348793	-0.044074606
117	0x3d5637f5	0.05229946
118	0x3c0ccdde	0.008594004
119	0xbf1f0bab	-0.6212718
120	0xbd840487	-0.06446176
121	0xbd4d6cc2	-0.050152548
122	0x3da1f299	0.079076
123	0xbe2a376b	-0.16622703
124	0xbd3b1082	-0.04567004
125	0x3c641b60	0.013922542
126	0xbe4c4eaa	-0.19951883
127	0xbee74323	-0.4516841
128	0x3ecc90b8	0.39954162
129	0xbf3cf385	-0.7380908
130	0xbf63a47c	-0.8892286
131	0x3cb910dd	0.022591049
132	0x3e46fc49	0.19432177
133	0xbde0a0e6	-0.10968189
134	0xbe86d8ab	-0.2633718
135	0x3d641b2f	0.055689987
136	0xbe14a18a	-0.14514747
137	0xbe743aa3	-0.23850493
138	0x3d5f8ac1	0.054575685
139	0x3d0bf088	0.034164935
140	0xbe361155	-0.17780049
141	0xbcb3d300	-0.021951199
142	0xbdd75d92	-0.10515894
143	0xbe49e34b	-0.19715612
144	0xbc59922c	-0.013279479
145	0xbe220adc	-0.15824455
146	0x3d6300c5	0.055420656
147	0x3c77f0df	0.015133112
148	0x3e1c69f8	0.15274799
149	0xbe307dc5	-0.17235477
150	0x3c85dfe9	0.01634212
151	0x3e0ef45e	0.13960406
152	0xbd1144fd	-0.035466183
153	0xbe6125cf	-0.21987079
154	0xbdc0dc19	-0.0941698
155	0x3e76bad1	0.24094702
156	0x3e8e7296	0.27821797
157	0x3ee6c799	0.45074156
158	0x3e9054fa	0.28189832
159	0xba05464d	-0.0005084023
160	0x3d16f96d	0.036858965
161	0xbe2e0dc1	-0.16997434
162	0x3e19c6cd	0.15017243
163	0xbe19b982	-0.15012172
164	0xbdbc5249	-0.09195382
165	0xbc18b7b3	-0.009321141
166	0x3e32afbd	0.17449851
167	0xbdce5551	-0.100748666
168	0x3da3ec4a	0.08004053
169	0xbe93d083	-0.2887002
170	0xbd853141	-0.06503535
171	0xbe465888	-0.1936971
172	0xbf5fdf8f	-0.874505
173	0xbe2f5d24	-0.17125374
174	0x3e1c11f8	0.1524123
175	0xbe8e1623	-0.27751264
176	0x3d90cb79	0.07070059
177	0x3e35b2a9	0.17743935
178	0xbd3ed925	-0.046593804
179	0x3de510c9	0.11184842
180	0x3d8ddd4f	0.06926977
181	0xbdd5c500	-0.104379654
182	0xbe370cd4	-0.17875987
183	0x3d0e9df7	0.034818616
184	0xbb8d1834	-0.0043058638
185	0x3d5cea65	0.053934474
186	0xbca63dc5	-0.020293126
187	0x3cf78141	0.030213
188	0x3d97838a	0.07398136
189	0x3e18cb8f	0.14921401
190	0x3eaaf512	0.333901
191	0xbead5e78	-0.33861136
192	0xbd132566	-0.035924338
193	0xbf5f0860	-0.87122154
194	0xc02fd2a8	-2.7472324
195	0xbc9d3a3d	-0.01919281
196	0x3d3a591d	0.04549514
197	0x3c885c8d	0.016645694
198	0x3e1657e3	0.14681964
199	0x3d4b8db6	0.049695693
200	0xbcc549c9	-0.024083035
201	0xbc468add	-0.0121180685
202	0x3c0708c0	0.008241832
203	0x3d8bd652	0.06827988
204	0x3d34f123	0.04417528
205	0xbe04b753	-0.12960558
206	0xbd9b5df0	-0.075862765
207	0xbd841b42	-0.064505115
208	0xbd13b193	-0.03605802
209	0xbda189f3	-0.0788764
210	0x3e2ae1db	0.1668772
211	0xbbc500c0	-0.0060120523
212	0xb9e55b72	-0.00043746416
213	0x3c9e0114	0.019287623
214	0x3cbdd7d3	0.023174202
215	0x3db22d41	0.08700038
216	0x3db49a77	0.08818524
217	0x3dafef81	0.085906036
218	0x3e91ce3f	0.28477666
219	0x3dd30a05	0.103046454
220	0xbbd06b45	-0.006360444
221	0x3c4d524d	0.012531829
222	0xbd4de05b	-0.05026279
223	0xbde0f6ba	-0.10984559
224	0x3da8ef9f	0.08248829
225	0xbca48aa0	-0.020085633
226	0xbd9c0e83	-0.076199554
227	0x3e3b800f	0.18310569
228	0x3e0eb62d	0.13936682
229	0xbed3c3a9	-0.41360214
230	0xbf14a8dc	-0.5807016
231	0xbff12835	-1.8840395
232	0x3df28ad4	0.118428856
233	0x3dd01e31	0.101620086
234	0x3e6fb8d8	0.23410356
235	0x3d3cdbf7	0.046108212
236	0x3d6981f1	0.057008687
237	0xbdb5b279	-0.088719316
238	0x3d4317e9	0.047630224
239	0xbe65db37	-0.22446905
240	0xbc6bfcd3	-0.01440354
241	0xbe4c5352	-0.19953659
242	0xbe42dcee	-0.1902959
243	0x3e4526f4	0.1925314
244	0xbd1aab44	-0.037760988
245	0x3b5dc3a0	0.0033838525
246	0xbde0136e	-0.10941206
247	0xbd98ee0b	-0.07467278
248	0x3e4a4a52	0.19754913
249	0x3e72b042	0.2370005
250	0x3d3514ee	0.044209413
251	0xbe182eeb	-0.14861648
252	0xbe4df912	-0.20114544
253	0xbd2c6e0f	-0.042097148
254	0x3e0c97d5	0.13729794
255	0x3e426bbd	0.18986411

fc1.bias f4 [64]
0	0xbcf2db50	-0.029645592
1	0x3e04ea98	0.12980115
2	0x3ea85b10	0.32881975
3	0xbd9a78ba	-0.07542558
4	0xbe3e287e	-0.18570134
5	0xbd403d3d	-0.0469334
6	0x3cbbbe93	0.022918021
7	0xbca9a23f	-0.020707248
8	0xbe889738	-0.2667787
9	0xbc3d5045	-0.011554782
10	0xbe85589f	-0.26044175
11	0x3d2acff2	0.04170222
12	0x3e5ed0ab	0.21759288
13	0xbdc71488	-0.09720713
14	0xbe27a5be	-0.1637182
15	0xbda4f322	-0.080541864
16	0xbd820887	-0.06349283
17	0x3e127a54	0.14304477
18	0x3e2a7b06	0.16648492
19	0xbcb46bf7	-0.022024138
20	0x3cf54de5	0.02994437
21	0xbd6e01e0	-0.058107257
22	0xbdb1d8ca	-0.08683927
23	0xbcf3e31b	-0.029771378
24	0xbb2f5851	-0.0026755522
25	0xbe21c8eb	-0.157993
26	0xbd8b1901	-0.067918785
27	0xbe8bd613	-0.27311763
28	0x3dabca7f	0.083882324
29	0x3e061970	0.13095641
30	0xbd37d777	-0.044883218
31	0xbd841e7d	-0.06451128
32	0xbe66e97d	-0.22550006
33	0xbd6f6dd4	-0.05845435
34	0xbe0bdb5f	-0.13657902
35	0x3d28ba92	0.041193552
36	0xbc7ee47e	-0.0155574065
37	0x3c8153f9	0.015787112
38	0x3ea95876	0.33075303
39	0xbddb35dd	-0.10703633
40	0xbee1d91f	-0.44110963
41	0x3dc97551	0.098368295
42	0xbe25fc87	-0.16209613
43	0x3d9a6476	0.07538693
44	0x3cbea412	0.023271594
45	0xbdeb2669	-0.114819355
46	0xbe7871b2	-0.24262121
47	0xbcd69347	-0.026193274
48	0xbe30101d	-0.17193647
49	0x3e2ecc98	0.17070234
50	0xbe35f236	-0.17768177
51	0xbd1ffff1	-0.039062444
52	0xbe26fb2f	-0.16306756
53	0xbd25e770	-0.04050392
54	0x3dd7391b	0.10508939
55	0x3dcb8cf9	0.09938998
56	0x3dadba01	0.08482743
57	0x3d1c168f	0.03810745
58	0xbb95a0a7	-0.0045662704
59	0x3d8aa135	0.06769029
60	0x3d073ee9	0.03301898
61	0xbe056d16	-0.13029894
62	0x3e1e715d	0.15472932
63	0xbe88d206	-0.26722735

fc2.weight f4 [64, 64]
0	0xbe803765	-0.25042263
1	0x3e3ae772	0.18252352
2	0xbeabf2ad	-0.33583584
3	0xbd99a2d5	-0.07501761
4	0x3d6586fb	0.05603693
5	0xbef01120	-0.46888065
6	0xbdb2c26d	-0.0872849
7	0xbd568e82	-0.052382
8	0xbe3b3e6f	-0.18285535
9	0x3e312e5f	0.17302845
10	0x3d9f02a7	0.07764178
11	0xbecaf790	-0.39642
12	0x3cdc1717	0.026866479
13	0xbea4baef	-0.3217387
14	0xbdbdcffc	-0.092681855
15	0x3db12021	0.08648706
16	0x3b837274	0.0040114466
17	0x3c9dcc9d	0.019262606
18	0x3cd1e92a	0.025623877
19	0x3f1d76db	0.61509484
20	0x3cb5197b	0.022106877
21	0xbead5a60	-0.33858013
22	0xbd8bb205	-0.06821064
23	0xbed340a4	-0.41260254
24	0xbe5df185	-0.21674164
25	0x3da9b30e	0.08286105
26	0xbdb906fb	-0.090345345
27	0x3c1554e0	0.009114474
28	0x3f00363d	0.5008276
29	0x3e294770	0.16531157
30	0x3d911c56	0.07085483
31	0x3e118faf	0.14214967
32	0xbd58274d	-0.052771855
33	0xbf08a91b	-0.53383034
34	0x3d042f7b	0.032271843
35	0xbbf9c3b3	-0.007622206
36	0x3e22d9e0	0.15903425
37	0xbe61816c	-0.22022027
38	0xbe878a24	-0.2647258
39	0xbd1a1b61	-0.037623767
40	0xbcdaee5d	-0.026724989
41	0x3d9f200a	0.07769783
42	0xbc259ac7	-0.010107703
43	0xbddb37b0	-0.10703981
44	0x3e014540	0.12624073
45	0xbced6d04	-0.028982647
46	0x3d4d150f	0.05006891
47	0xbd438cee	-0.047741823
48	0x3cb1add4	0.021689333
49	0x3c070d15	0.008242865
50	0x3c24734e	0.010037256
51	0xbd24cf95	-0.04023703
52	0x3dab2f4a	0.08358629
53	0xbcdf4cab	-0.027258238
54	0xbca600a2	-0.020263974
55	0x3e495786	0.19662294
56	0xbccb6323	-0.024827546
57	0xbd2d8764	-0.042365447
58	0xbd82d0d8	-0.0638749
59	0x3e318c84	0.17338759
60	0xbbab7818	-0.005232822
61	0xbe2d23d7	-0.16908203
62	0x3e0aa8c1	0.13540937
63	0xbdd0ee54	-0.102017075
64	0xbbd7d83f	-0.006587058
65	0xbd39f3bd	-0.045398463
66	0xbe228293	-0.15870123
67	0x3cf0955f	0.0293681
68	0xbd6019a3	-0.05471195
69	0xbf067aa6	-0.52530897
70	0xbdc644ce	-0.09681092
71	0xbe5e8d66	-0.21733627
72	0xbc8437cc	-0.016139887
73	0xbee4bbdb	-0.44674572
74	0xbb28e95d	-0.002577386
75	0xbd2d0d6f	-0.04224914
76	0xbb92b5cc	-0.0044772383
77	0x3e15b321	0.14619114
78	0xbe9a5946	-0.30146235
79	0xbdc9d7e0	-0.09855628
80	0x3de3910d	0.111116506
81	0xbe41bcb3	-0.1891964
82	0xbd8b9eb4	-0.068173796
83	0x3eb999c6	0.36250132
84	0x3dca73c2	0.0988536
85	0x3e0d2be9	0.13786282
86	0xbccde475	-0.02513335
87	0x3e8b2583	0.27177057
88	0xbde1c1a6	-0.11023264
89	0x3ce7d475	0.02829955
90	0xbdb8b76a	-0.090193585
91	0x3d9c8ad9	0.076436706
92	0xbf13821d	-0.5762041
93	0x3ea05880	0.3131752
94	0x3de0ef66	0.10983162
95	0x3d96da8a	0.07365902
96	0x3ca2698f	0.019825725
97	0x3e010b5f	0.12601994
98	0x3c1cec8d	0.0095778825
99	0x3dfba358	0.12287015
100	0xbeceb08f	-0.4036908
101	0x3e497eba	0.19677249
102	0x3c4d3639	0.012525135
103	0x3d6b935c	0.05751358
104	0x3c5e7a5b	0.0135789765
105	0xbe01f659	-0.1269163
106	0x3e4d1c9e	0.20030448
107	0xbe124f17	-0.14287983
108	0x3ca0a0f6	0.019608002
109	0xbcdf1042	-0.027229432
110	0x3daecfbd	0.08535717
111	0xbe09b484	-0.13447767
112	0x3cf2dfa2	0.029647652
113	0xbddcf636	-0.107891485
114	0x3cd51e17	0.026015325
115	0x3ce9942d	0.028513039
116	0xbdefb70c	-0.11704835
117	0xbe6ebb32	-0.23313597
118	0xbdd72380	-0.10504818
119	0x3e5a0a5a	0.21293011
120	0x3e9dcae3	0.30818853
121	0x3e26e322	0.16297582
122	0x3e3e8e95	0.18609078
123	0xbd9a705e	-0.075409636
124	0xbd2054e2	-0.03914345
125	0x3e0e9f7c	0.13928026
126	0xbece6a76	-0.40315598
127	0xbd86a782	-0.06574918
128	0xbe65bf7b	-0.22436325
129	0x3efa81e5	0.48927227
130	0x3eab6032	0.3347183
131	0xbd271a2f	-0.040796455
132	0x3d5ae358	0.05343947
133	0x3e2960b5	0.16540797
134	0x3d3ce676	0.046118222
135	0xbe563ab7	-0.20920835
136	0x3cf62773	0.030048108
137	0x3bb362cb	0.0054744235
138	0x3d91e121	0.07123018
139	0x3e77ce90	0.24199891
140	0xbd8dd46b	-0.06925281
141	0xbe2ec6c1	-0.17068006
142	0x3e7770ef	0.24164174
143	0x3da1c516	0.07898919
144	0x3e1d1266	0.1533905
145	0xbe7469ed	-0.23868532
146	0xbe90b76f	-0.2826495
147	0xbeb88fa5	-0.36047092
148	0x3db8183d	0.08988998
149	0xbe783fe9	-0.2424313
150	0x3d14eb45	0.036357183
151	0xbe9b0be7	-0.30282518
152	0x3cf38232	0.029725168
153	0x3e1b796c	0.15183038
154	0x3b99ad86	0.004689875
155	0xbd21e347	-0.03952339
156	0xbe812098	-0.2522018
157	0xbd8d2a38	-0.06892818
158	0xbe0b3441	-0.13594152
159	0x3e4d163b	0.20028012
160	0xbddd61e7	-0.10809689
161	0xbbebd5b5	-0.0071971067
162	0x3e572359	0.21009578
163	0x3dd04e6f	0.1017121
164	0x3e1d073e	0.15334794
165	0x3c930ef5	0.017951468
166	0x3d03030a	0.03198532
167	0x3ca6d362	0.020364467
168	0xbb9f06a1	-0.004853085
169	0xbe60a3e1	-0.21937515
170	0x3d640802	0.0556717
171	0xbd03572e	-0.032065563
172	0x3d7e7267	0.06212082
173	0x3e220c8d	0.158251
174	0x3e0a5963	0.13510661
175	0xbb42137f	-0.0029613671
176	0x3d95aa7b	0.07307907
177	0xbdd8fdad	-0.1059526
178	0x3d586e87	0.052839782
179	0x3d0637d2	0.03276808
180	0xbda6d894	-0.08146778
181	0xbe155639	-0.14583673
182	0x3e65204d	0.22375603
183	0xbdda4e04	-0.106594115
184	0xbe0c7476	-0.13716301
185	0xbe06e1cd	-0.13172074
186	0x3e689911	0.2271464
187	0xbd98d313	-0.07462134
188	0x3d4a471a	0.049384214
189	0xbcc391a2	-0.023873154
190	0x3d42adf2	0.04752917
191	0x3d63abb5	0.055583674
192	0xbec2d46a	-0.38052684
193	0xbe8f428f	-0.27980468
194	0x3dbc0782	0.091811195
195	0x3d63615c	0.05551277
196	0xbec5208c	-0.38501394
197	0xbf048fe9	-0.5178209
198	0xbdc95c02	-0.09832002
199	0xbed32cbf	-0.41245076
200	0x3e062187	0.13098727
201	0xbe8cf198	-0.2752807
202	0x3d6fd965	0.058556933
203	0x3ddec2e3	0.108770154
204	0x3dfdf8e8	0.12400991
205	0xbde2ece8	-0.110803425
206	0x3e699897	0.22812115
207	0x3eb06d47	0.34458372
208	0x3e13eecb	0.14446561
209	0xbe22775f	-0.15865849
210	0xbf177864	-0.59168077
211	0xbf08756c	-0.5330417
212	0xbf0701d1	-0.52737147
213	0xbd821485	-0.0635157
214	0xbe8743fd	-0.26419058
215	0xbee46680	-0.4460945
216	0xbeaace00	-0.3336029
217	0xbe1c19ab	-0.15244167
218	0xbec936ad	-0.39299527
219	0xbd6cd48f	-0.0578199
220	0xbf3525d8	-0.7076087
221	0xbec179db	-0.3778828
222	0xbea0a768	-0.3137772
223	0x3d231c56	0.039821945
224	0x3e465835	0.19369586
225	0xbeca83cf	-0.39553687
226	0x3e8efc7e	0.2792701
227	0x3e954933	0.2915741
228	0xbef21d1c	-0.47287834
229	0xbe3576c1	-0.17721082
230	0x3d8ac4d1	0.06775821
231	0x3e3096c2	0.1724501
232	0x3e44b166	0.19208297
233	0xbe1bc63c	-0.15212339
234	0xbef331fb	-0.4749907
235	0x3e85d146	0.26136225
236	0x3e34fe89	0.17675222
237	0xbec10a7e	-0.37703317
238	0x3dd272a2	0.10275771
239	0x3eb1e3c2	0.34744078
240	0xbec8c7cd	-0.39214936
241	0xbcdbfb1f	-0.026853142
242	0xbdcc9804	-0.09989932
243	0xbef67914	-0.4813925
244	0xbf017b05	-0.5057834
245	0xbdedf0e5	-0.116182126
246	0xbe1f651a	-0.15565911
247	0x3d9f88a6	0.077897355
248	0xbe62132d	-0.22077627
249	0xbe11e22d	-0.14246435
250	0xbe8e111a	-0.27747422
251	0x3efb7dd8	0.4911945
252	0xbe9a7a32	-0.30171353
253	0x3d920f9f	0.07131886
254	0xbefd802d	-0.49511853
255	0xbe882208	-0.26588464

fc2.bias f4 [64]
0	0x3f00b8c3	0.50281924
1	0x3a84ca45	0.0010131082
2	0x3e60755e	0.21919772
3	0x3d2ebd64	0.042661086
4	0xbe210a63	-0.15726618
5	0xbdb8bd68	-0.090205014
6	0x3e533196	0.20624384
7	0x3b255239	0.002522601
8	0x3e6a5d98	0.22887266
9	0x3db1cefc	0.08682057
10	0xbdc9476b	-0.09828075
11	0xbda70641	-0.0815549
12	0x3cc92838	0.02455531
13	0x3bbf1eb0	0.0058325157
14	0x3e391b85	0.18076904
15	0xbdc32e84	-0.095303565
16	0xbdc0d4fb	-0.09415623
17	0xbe186009	-0.14880385
18	0x3ec86554	0.39139807
19	0x3eabfb02	0.3358994
20	0xbea04645	-0.3130361
21	0xbe34eed7	-0.17669235
22	0xbda84110	-0.08215535
23	0x3f55ec4f	0.83563703
24	0x3f42f715	0.7615827
25	0xbea138fd	-0.3148879
26	0x3cae5639	0.021281349
27	0x3dc7f4a2	0.09763457
28	0xbd2e9ba3	-0.042628895
29	0xbe9a034f	-0.3008065
30	0x3d46bec5	0.048521776
31	0xbdd2e664	-0.1029785
32	0x3d7778b0	0.06041783
33	0x3d6a0145	0.057130117
34	0xbde3c945	-0.111223735
35	0xbdb31b69	-0.087454624
36	0x3f113d43	0.567341
37	0xbdd5ffc4	-0.10449174
38	0x3dd1bb0c	0.102407545
39	0x3977844d	0.00023605041
40	0x3d1085f6	0.035284005
41	0xbd3c6ced	-0.046002317
42	0xbc94c68d	-0.018161083
43	0x3f294998	0.6612792
44	0x3f21bcfc	0.6317899
45	0x3f0395d8	0.5140052
46	0x3e4e9492	0.20173863
47	0x3eb6e7c0	0.35723686
48	0xbe72dfaf	-0.23718141
49	0xbdb25b61	-0.087088354
50	0xbe189d98	-0.14903867
51	0x3b63db3b	0.0034768123
52	0xbea85185	-0.32874694
53	0xbdfe0a8f	-0.12404358
54	0x3c362cb0	0.011119053
55	0xbd96b39d	-0.07358477
56	0x3db55f0c	0.088560194
57	0xbdc84644	-0.09779027
58	0x3f267349	0.6501966
59	0xbd090e1f	-0.033460733
60	0x3e36bfa3	0.17846541
61	0xbe4a1f79	-0.19738568
62	0xbd3af6d4	-0.04564555
63	0x3ee30d4a	0.44346076

fc3.weight f4 [4, 64]
0	0x3ee3cedc	0.4449376
1	0x3e0c34ac	0.13691968
2	0x3e2a56ae	0.16634628
3	0x3cb520a1	0.022110285
4	0x3e9b1721	0.30291083
5	0xbe57a8ef	-0.21060537
6	0x3d83e343	0.06439831
7	0xbdbb92f1	-0.09158886
8	0x3e5b02d7	0.21387802
9	0x3f010c08	0.50408983
10	0xbc88cbfb	-0.016698828
11	0xbebbbb42	-0.36666304
12	0xbd61ee3c	-0.05515884
13	0xbd06d829	-0.03292099
14	0x3e9700a3	0.29492673
15	0x3e79a1fb	0.24378197
16	0xbda1c9f7	-0.0789985
17	0xbe6befc4	-0.23040682
18	0x3e505244	0.20343882
19	0x3e919206	0.2843172
20	0xbe42c5fd	-0.19020839
21	0x3f223ac7	0.6337094
22	0xbd5d27aa	-0.053992905
23	0x3e9a6bdd	0.30160418
24	0x3e69a6b2	0.22817495
25	0x3ed9d658	0.42546344
26	0x3e104bc1	0.14091398
27	0x3e8b2a5e	0.2718076
28	0xbf17aa35	-0.5924409
29	0xbe1586ea	-0.14602247
30	0x3b454973	0.0030103594
31	0x3e83976b	0.2570146
32	0x3d2b634a	0.041842736
33	0x3e9ffade	0.31246084
34	0x3d9e8964	0.07741049
35	0xbea8e972	-0.32990605
36	0x3e72d31b	0.23713343
37	0xbeec904e	-0.46203846
38	0x3e8f374a	0.2797187
39	0xbe38bb98	-0.18040311
40	0x3edf425e	0.43605322
41	0xbc78bb80	-0.015181422
42	0xbe456558	-0.19276941
43	0x3e3c6742	0.18398765
44	0x3e91e79a	0.2849701
45	0x3e20d3fd	0.15705867
46	0x3e3ba17a	0.18323317
47	0x3e63ff74	0.22265416
48	0xbe09a8c0	-0.1344328
49	0xbdedafc0	-0.11605787
50	0xbf18f4b6	-0.597484
51	0x3dc73779	0.097273774
52	0xbe956bdd	-0.29183856
53	0xbed18714	-0.4092337
54	0xbcd3dc1c	-0.025861792
55	0xbe2888b8	-0.16458404
56	0x3d301d0a	0.042996444
57	0x3e2d8706	0.16946039
58	0x3e344798	0.17605436
59	0x3ed41659	0.414233
60	0x3e409adf	0.18809079
61	0x3d24abc1	0.04020286
62	0xbd5b4b37	-0.053538527
63	0x3dda34ee	0.10654627
64	0x3efab32b	0.4896482
65	0x3e2c177b	0.16805832
66	0x3d919fb2	0.071105376
67	0x3dd1a987	0.10237413
68	0x3eae5582	0.34049612
69	0xbd412891	-0.047157828
70	0x3e3708d0	0.17874455
71	0x3dd4081a	0.10353108
72	0x3e8340a8	0.25635266
73	0x3ef31529	0.4747708
74	0x3c215897	0.009847782
75	0xbd8077ce	-0.06272851
76	0x3e0175be	0.12642571
77	0xbf30f712	-0.69127
78	0x3eb76a22	0.3582316
79	0x3e9f2124	0.31079972
80	0x3dad4ae3	0.08461549
81	0xbd223226	-0.039598607
82	0x3e2c29e8	0.16812861
83	0x3e6255e6	0.2210308
84	0xbdbc0093	-0.09179797
85	0x3e3a1264	0.18171078
86	0xbe688087	-0.2270528
87	0x3e67e3a6	0.22645435
88	0x3ea31026	0.31848258
89	0xbeccce98	-0.4000137
90	0xbd0fa01d	-0.035064805
91	0x3e63764b	0.22213094
92	0x3d3d8532	0.046269603
93	0xbe0adbb0	-0.13560367
94	0xbf03e927	-0.5152764
95	0x3ebfbb4b	0.3744758
96	0x3e127a1e	0.14304397
97	0x3e5ee5ee	0.21767399
98	0xbe0f4229	-0.13990082
99	0xbd64b208	-0.055833846
100	0x3e9a6b65	0.3016006
101	0xbe9d54d0	-0.3072877
102	0x3efd1f2f	0.49437854
103	0xbdf4899d	-0.1194031
104	0x3ebb5521	0.36588386
105	0xbdf924cb	-0.12165221
106	0x3e81edbd	0.25376692
107	0x3e2d9454	0.16951114
108	0x3e56d2ee	0.20978901
109	0x3e3abb44	0.18235499
110	0x3e4a2161	0.19739296
111	0x3e8f3a3b	0.27974114
112	0xbe33ad55	-0.1754659
113	0xbda9388f	-0.08262741
114	0x3de88b10	0.11354649
115	0x3c87f582	0.01659656
116	0xbe4297cf	-0.19003223
117	0xbe4e33c1	-0.2013693
118	0x3d8b5a71	0.0680436
119	0xbd39fd26	-0.045407437
120	0xbf2f8d3c	-0.6857488
121	0xbf475841	-0.7786904
122	0x3e2beab5	0.16788752
123	0x3effb3d7	0.49941894
124	0x3dcfad66	0.10140495
125	0x3e5a69e5	0.21329458
126	0x3cae11c6	0.02124871
127	0x3df17af4	0.117910296
128	0x3e3803e2	0.17970231
129	0x3d62febd	0.05541872
130	0xbaddf243	-0.0016933162
131	0xbdb3cf03	-0.08779719
132	0x3cd5bde4	0.026091523
133	0xbdfdfd45	-0.12401823
134	0x3e8f9336	0.28042
135	0x3dbce0fb	0.09222599
136	0x3d667d4e	0.056271844
137	0x3f161b19	0.586351
138	0x3e349095	0.17633279
139	0xbdee6246	-0.11639838
140	0xbede3412	-0.43399101
141	0xbe624fe1	-0.22100784
142	0x3e38b80c	0.18038958
143	0x3e905da8	0.28196454
144	0x3e68cb17	0.22733723
145	0xbcdbc852	-0.026828919
146	0x3e33ddf0	0.17565131
147	0x3de97d38	0.11400837
148	0x3e48fa3d	0.19626708
149	0xbe188a25	-0.14896448
150	0xbedc4cdc	-0.4302739
151	0x3e9a3810	0.30120897
152	0x3e81d7ee	0.25360054
153	0xbe7b3c01	-0.24534608
154	0x3e69d527	0.22835217
155	0x3f12afdb	0.57299584
156	0x3eab32d3	0.33437213
157	0xbd91e3b4	-0.07123509
158	0xbe981c4e	-0.29709095
159	0xbf0f184e	-0.5589646
160	0x3dd919bf	0.10600614
161	0x3eac33dc	0.33633316
162	0x3ee2c68f	0.44292113
163	0xbe3e9ed6	-0.18615279
164	0x3e2a3c7e	0.16624638
165	0xbe1bb0fd	-0.15204234
166	0x3ef407ac	0.47662103
167	0xbe94497c	-0.28962314
168	0xbcd82ca9	-0.026388483
169	0x3e67abeb	0.22624175
170	0x3e2c87a9	0.16848625
171	0x3e5f96bd	0.21834846
172	0x3e855975	0.26044813
173	0x3e8704a4	0.26370728
174	0xbcbd053f	-0.02307379
175	0x3e265c1d	0.16246076
176	0xbc67fa2f	-0.0141587695
177	0xbeb10c32	-0.34579617
178	0xbedd7a91	-0.43257573
179	0xbf0df7e3	-0.5545637
180	0xbe41d625	-0.18929346
181	0xbe86580e	-0.26239055
182	0x3e84c877	0.25934193
183	0xbed925e5	-0.42411724
184	0x3ebce410	0.36892748
185	0x3e0f519c	0.13995975
186	0x3e8bcbad	0.2730383
187	0x3f01a3a3	0.50640315
188	0x3da433b2	0.080176726
189	0x3ee39b8b	0.44454607
190	0x3dbb79f0	0.09154117
191	0x3dfd8fc1	0.123809345
192	0x3e92f4e1	0.28702453
193	0x3e340915	0.1758159
194	0xbdb5b737	-0.08872836
195	0xbf7725ff	-0.9654235
196	0x3ed2a67a	0.41142637
197	0x3e7e2ce5	0.24821813
198	0x3e22c25a	0.15894452
199	0x3e8ae564	0.27128136
200	0xbd875024	-0.066070825
201	0x3f18ce6d	0.5968998
202	0xbe816246	-0.2527029
203	0xbd9b2eb2	-0.07577266
204	0x3dafd5c2	0.08585693
205	0x3e207205	0.15668495
206	0x3ea2a0af	0.31763217
207	0x3ee7ec16	0.45297307
208	0x3e6ff1d5	0.23432095
209	0xbebc9989	-0.36835888
210	0x3e771ded	0.2413251
211	0x3dc0cdc4	0.09414247
212	0x3e587615	0.21138795
213	0xbdb79ec1	-0.08965827
214	0xbd390cf7	-0.04517838
215	0x3ea712e5	0.32631603
216	0x3e551c6e	0.20811626
217	0xbf1ce256	-0.6128286
218	0x3e22238a	0.1583387
219	0x3e8c0cba	0.2735346
220	0xbf08059e	-0.5313357
221	0xbe9f3a80	-0.3109932
222	0x3ed156be	0.40886492
223	0x3e97cecf	0.2964997
224	0x3ea1e576	0.31620377
225	0x3e647572	0.22310427
226	0x3dba3aed	0.090932705
227	0xbf17df23	-0.59324855
228	0x3e3499b4	0.17636758
229	0x3d6eb618	0.058279127
230	0x3e8a7109	0.27039364
231	0xbe478bb8	-0.19486892
232	0x3e9dd2aa	0.30824786
233	0x3e478865	0.19485624
234	0x3e7ee191	0.24890734
235	0x3e6e085a	0.23245373
236	0x3e5d655b	0.21620695
237	0x3e729c65	0.23692472
238	0x3e7c74bc	0.24653906
239	0xbcb49b26	-0.022046637
240	0xbede9508	-0.43473077
241	0xbd369694	-0.044577196
242	0xbe9ec3e7	-0.31008837
243	0x3e8cdf8d	0.27514306
244	0x3d068ad6	0.032847248
245	0x3b1bf057	0.0023794377
246	0xbdaec4b4	-0.08533612
247	0xbeadd7be	-0.3395366
248	0x3e8a5e28	0.2702496
249	0x3d461715	0.048361856
250	0x3e52aeaf	0.20574449
251	0x3e8a95d6	0.2706744
252	0x3db7333f	0.08945321
253	0xbe047646	-0.12935743
254	0x3e918b9e	0.28426832
255	0x3e768bcd	0.24076767

fc3.bias f4 [4]
0	0x3f0a9638	0.54135466
1	0x3eeeeb14	0.46663725
2	0x3ef0eb70	0.47054625
3	0x3ee6ffd2	0.4511705

main.0.weight f4 [64, 37]
0	0xbe568dd4	-0.2095254
1	0x3cc24e0c	0.023718856
2	0x3e1521e9	0.14563717
3	0xbe427943	-0.1899157
4	0xbc4e0fbe	-0.012576995
5	0xbf43a9b7	-0.7643084
6	0xbea76c43	-0.32699785
7	0x3ea0b8cf	0.31390998
8	0xbeb46759	-0.35235098
9	0xc0214cb5	-2.5203068
10	0xbc8d744c	-0.017267369
11	0x3d81b7d8	0.063338935
12	0x3dc28ca4	0.09499481
13	0xbdb213c8	-0.08695179
14	0xbde324ba	-0.110909894
15	0xbd2ef4e1	-0.042714003
16	0xbe8cde24	-0.2751323
17	0x3e25cdc4	0.16191775
18	0xbe89df2d	-0.26928082
19	0x3ca46939	0.020069705
20	0xbd0a8d23	-0.033826005
21	0xbe222b5e	-0.15836856
22	0xbd943cf0	-0.072381854
23	0xbc5f8841	-0.013643325
24	0x3d6be9d9	0.05759606
25	0xbf3e15a7	-0.7425179
26	0xbde07f86	-0.10961823
27	0x3e2ac634	0.16677171
28	0xbf004d1b	-0.50117654
29	0xc06e7f1f	-3.7265089
30	0x3e016325	0.12635477
31	0xbd395d25	-0.045254845
32	0x3d3e4482	0.046452053
33	0xbe7d08a6	-0.2471033
34	0xbf019b82	-0.5062791
35	0x3e5cc68e	0.21560118
36	0x3d5d0664	0.053961173
37	0x3d912929	0.07087929
38	0x3d9619da	0.073291495
39	0x3d999976	0.074999735
40	0x3d72053d	0.059087027
41	0xbc5cc077	-0.013473622
42	0x3de66a1d	0.11250708
43	0x3d8e213a	0.06939931
44	0x3e254db7	0.16142927
45	0x3dcdd2b3	0.10049953
46	0xbcd99b5b	-0.026563337
47	0x3edf9f44	0.43676198
48	0xbf3e6c09	-0.743836
49	0xbf44b11a	-0.76832736
50	0xbf4603ec	-0.77349734
51	0xc01c107c	-2.4385061
52	0x3d966ace	0.0734459
53	0x3dcb8478	0.09937376
54	0x3dc1d2a0	0.09464002
55	0xbc823349	-0.015893595
56	0xbd57928f	-0.052630004
57	0xbd331b81	-0.0437274
58	0x3d94e531	0.07270277
59	0xbcc65384	-0.024209745
60	0x3e181781	0.14852716
61	0x3db19d4a	0.08672579
62	0x3cabddf1	0.020979853
63	0xbd518754	-0.05115445
64	0x3d4a38b2	0.049370475
65	0x3d827621	0.063701876
66	0x3d1d0883	0.038338196
67	0xbd92bd4b	-0.07165011
68	0xbd57501a	-0.052566625
69	0x3d86b0e9	0.06576712
70	0x3d119c8e	0.035549693
71	0x3e380947	0.17972289
72	0x3c0986cd	0.008393955
73	0xbb5d4ffc	-0.0033769598
74	0xbd89d959	-0.06730909
75	0x3c815cc2	0.0157913
76	0x3cac192e	0.0210081
77	0x3daa52cb	0.08316573
78	0x3d9b2c28	0.075767815
79	0x3f194294	0.59867215
80	0xbf833cb6	-1.0252903
81	0xbf40f664	-0.7537596
82	0xbf51dd02	-0.81977856
83	0xc0184a5f	-2.3795393
84	0x3e24600e	0.16052267
85	0x3e14c509	0.14528288
86	0x3df379f7	0.11888497
87	0x3dd9cf67	0.10635262
88	0xbde5b808	-0.11216742
89	0x3d6a1df4	0.05715747
90	0x3e0a9dec	0.13536805
91	0x3e10a5d6	0.14125761
92	0x3ea588f5	0.32331052
93	0x3e078d96	0.13237604
94	0x3d5e2daf	0.054242786
95	0x3e0d9083	0.13824658
96	0x3e26912a	0.16266313
97	0x3d755d74	0.059903577
98	0xbdbdeec5	-0.09274057
99	0x3b25053f	0.002518013
100	0x3d3a55f9	0.045492146
101	0x3da880a9	0.08227665
102	0x3e199c3c	0.15001005
103	0x3c3f5c14	0.011679668
104	0x3e0dd320	0.13850069
105	0x3d0174fe	0.031605713
106	0x3cef7a3c	0.02923309
107	0x3cce82d2	0.025208864
108	0xbe240c9d	-0.16020437
109	0xbbbeac01	-0.0058188443
110	0x3b24e4b0	0.0025160722
111	0xbe2f916e	-0.17145321
112	0xbdc34221	-0.095340975
113	0xbac3d38c	-0.0014940365
114	0x3da1552c	0.07877573
115	0xbead277a	-0.3381918
116	0xbd348793	-0.044074606
117	0x3d5637f5	0.05229946
118	0x3c0ccdde	0.008594004
119	0xbf1f0bab	-0.6212718
120	0xbd840487	-0.06446176
121	0xbd4d6cc2	-0.050152548
122	0x3da1f299	0.079076
123	0xbe2a376b	-0.16622703
124	0xbd3b1082	-0.04567004
125	0x3c641b60	0.013922542
126	0xbe4c4eaa	-0.19951883
127	0xbee74323	-0.4516841
128	0x3ecc90b8	0.39954162
129	0xbf3cf385	-0.7380908
130	0xbf63a47c	-0.8892286
131	0x3cb910dd	0.022591049
132	0x3e46fc49	0.19432177
133	0xbde0a0e6	-0.10968189
134	0xbe86d8ab	-0.2633718
135	0x3d641b2f	0.055689987
136	0xbe14a18a	-0.14514747
137	0xbe743aa3	-0.23850493
138	0x3d5f8ac1	0.054575685
139	0x3d0bf088	0.034164935
140	0xbe361155	-0.17780049
141	0xbcb3d300	-0.021951199
142	0xbdd75d92	-0.10515894
143	0xbe49e34b	-0.19715612
144	0xbc59922c	-0.013279479
145	0xbe220adc	-0.15824455
146	0x3d6300c5	0.055420656
147	0x3c77f0df	0.015133112
148	0x3e1c69f8	0.15274799
149	0xbe307dc5	-0.17235477
150	0x3c85dfe9	0.01634212
151	0x3e0ef45e	0.13960406
152	0xbd1144fd	-0.035466183
153	0xbe6125cf	-0.21987079
154	0xbdc0dc19	-0.0941698
155	0x3e76bad1	0.24094702
156	0x3e8e7296	0.27821797
157	0x3ee6c799	0.45074156
158	0x3e9054fa	0.28189832
159	0xba05464d	-0.0005084023
160	0x3d16f96d	0.036858965
161	0xbe2e0dc1	-0.16997434
162	0x3e19c6cd	0.15017243
163	0xbe19b982	-0.15012172
164	0xbdbc5249	-0.09195382
165	0xbc18b7b3	-0.009321141
166	0x3e32afbd	0.17449851
167	0xbdce5551	-0.100748666
168	0x3da3ec4a	0.08004053
169	0xbe93d083	-0.2887002
170	0xbd853141	-0.06503535
171	0xbe465888	-0.1936971
172	0xbf5fdf8f	-0.874505
173	0xbe2f5d24	-0.17125374
174	0x3e1c11f8	0.1524123
175	0xbe8e1623	-0.27751264
176	0x3d90cb79	0.07070059
177	0x3e35b2a9	0.17743935
178	0xbd3ed925	-0.046593804
179	0x3de510c9	0.11184842
180	0x3d8ddd4f	0.06926977
181	0xbdd5c500	-0.104379654
182	0xbe370cd4	-0.17875987
183	0x3d0e9df7	0.034818616
184	0xbb8d1834	-0.0043058638
185	0x3d5cea65	0.053934474
186	0xbca63dc5	-0.020293126
187	0x3cf78141	0.030213
188	0x3d97838a	0.07398136
189	0x3e18cb8f	0.14921401
190	0x3eaaf512	0.333901
191	0xbead5e78	-0.33861136
192	0xbd132566	-0.035924338
193	0xbf5f0860	-0.87122154
194	0xc02fd2a8	-2.7472324
195	0xbc9d3a3d	-0.01919281
196	0x3d3a591d	0.04549514
197	0x3c885c8d	0.016645694
198	0x3e1657e3	0.14681964
199	0x3d4b8db6	0.049695693
200	0xbcc549c9	-0.024083035
201	0xbc468add	-0.0121180685
202	0x3c0708c0	0.008241832
203	0x3d8bd652	0.06827988
204	0x3d34f123	0.04417528
205	0xbe04b753	-0.12960558
206	0xbd9b5df0	-0.075862765
207	0xbd841b42	-0.064505115
208	0xbd13b193	-0.03605802
209	0xbda189f3	-0.0788764
210	0x3e2ae1db	0.1668772
211	0xbbc500c0	-0.0060120523
212	0xb9e55b72	-0.00043746416
213	0x3c9e0114	0.019287623
214	0x3cbdd7d3	0.023174202
215	0x3db22d41	0.08700038
216	0x3db49a77	0.08818524
217	0x3dafef81	0.085906036
218	0x3e91ce3f	0.28477666
219	0x3dd30a05	0.103046454
220	0xbbd06b45	-0.006360444
221	0x3c4d524d	0.012531829
222	0xbd4de05b	-0.05026279
223	0xbde0f6ba	-0.10984559
224	0x3da8ef9f	0.08248829
225	0xbca48aa0	-0.020085633
226	0xbd9c0e83	-0.076199554
227	0x3e3b800f	0.18310569
228	0x3e0eb62d	0.13936682
229	0xbed3c3a9	-0.41360214
230	0xbf14a8dc	-0.5807016
231	0xbff12835	-1.8840395
232	0x3df28ad4	0.118428856
233	0x3dd01e31	0.101620086
234	0x3e6fb8d8	0.23410356
235	0x3d3cdbf7	0.046108212
236	0x3d6981f1	0.057008687
237	0xbdb5b279	-0.088719316
238	0x3d4317e9	0.047630224
239	0xbe65db37	-0.22446905
240	0xbc6bfcd3	-0.01440354
241	0xbe4c5352	-0.19953659
242	0xbe42dcee	-0.1902959
243	0x3e4526f4	0.1925314
244	0xbd1aab44	-0.037760988
245	0x3b5dc3a0	0.0033838525
246	0xbde0136e	-0.10941206
247	0xbd98ee0b	-0.07467278
248	0x3e4a4a52	0.19754913
249	0x3e72b042	0.2370005
250	0x3d3514ee	0.044209413
251	0xbe182eeb	-0.14861648
252	0xbe4df912	-0.20114544
253	0xbd2c6e0f	-0.042097148
254	0x3e0c97d5	0.13729794
255	0x3e426bbd	0.18986411

main.0.bias f4 [64]
0	0xbcf2db50	-0.029645592
1	0x3e04ea98	0.12980115
2	0x3ea85b10	0.32881975
3	0xbd9a78ba	-0.07542558
4	0xbe3e287e	-0.18570134
5	0xbd403d3d	-0.0469334
6	0x3cbbbe93	0.022918021
7	0xbca9a23f	-0.020707248
8	0xbe889738	-0.2667787
9	0xbc3d5045	-0.011554782
10	0xbe85589f	-0.26044175
11	0x3d2acff2	0.04170222
12	0x3e5ed0ab	0.21759288
13	0xbdc71488	-0.09720713
14	0xbe27a5be	-0.1637182
15	0xbda4f322	-0.080541864
16	0xbd820887	-0.06349283
17	0x3e127a54	0.14304477
18	0x3e2a7b06	0.16648492
19	0xbcb46bf7	-0.022024138
20	0x3cf54de5	0.02994437
21	0xbd6e01e0	-0.058107257
22	0xbdb1d8ca	-0.08683927
23	0xbcf3e31b	-0.029771378
24	0xbb2f5851	-0.0026755522
25	0xbe21c8eb	-0.157993
26	0xbd8b1901	-0.067918785
27	0xbe8bd613	-0.27311763
28	0x3dabca7f	0.083882324
29	0x3e061970	0.13095641
30	0xbd37d777	-0.044883218
31	0xbd841e7d	-0.06451128
32	0xbe66e97d	-0.22550006
33	0xbd6f6dd4	-0.05845435
34	0xbe0bdb5f	-0.13657902
35	0x3d28ba92	0.041193552
36	0xbc7ee47e	-0.0155574065
37	0x3c8153f9	0.015787112
38	0x3ea95876	0.33075303
39	0xbddb35dd	-0.10703633
40	0xbee1d91f	-0.44110963
41	0x3dc97551	0.098368295
42	0xbe25fc87	-0.16209613
43	0x3d9a6476	0.07538693
44	0x3cbea412	0.023271594
45	0xbdeb2669	-0.114819355
46	0xbe7871b2	-0.24262121
47	0xbcd69347	-0.026193274
48	0xbe30101d	-0.17193647
49	0x3e2ecc98	0.17070234
50	0xbe35f236	-0.17768177
51	0xbd1ffff1	-0.039062444
52	0xbe26fb2f	-0.16306756
53	0xbd25e770	-0.04050392
54	0x3dd7391b	0.10508939
55	0x3dcb8cf9	0.09938998
56	0x3dadba01	0.08482743
57	0x3d1c168f	0.03810745
58	0xbb95a0a7	-0.0045662704
59	0x3d8aa135	0.06769029
60	0x3d073ee9	0.03301898
61	0xbe056d16	-0.13029894
62	0x3e1e715d	0.15472932
63	0xbe88d206	-0.26722735

main.2.weight f4 [64, 64]
0	0xbe803765	-0.25042263
1	0x3e3ae772	0.18252352
2	0xbeabf2ad	-0.33583584
3	0xbd99a2d5	-0.07501761
4	0x3d6586fb	0.05603693
5	0xbef01120	-0.46888065
6	0xbdb2c26d	-0.0872849
7	0xbd568e82	-0.052382
8	0xbe3b3e6f	-0.18285535
9	0x3e312e5f	0.17302845
10	0x3d9f02a7	0.07764178
11	0xbecaf790	-0.39642
12	0x3cdc1717	0.026866479
13	0xbea4baef	-0.3217387
14	0xbdbdcffc	-0.092681855
15	0x3db12021	0.08648706
16	0x3b837274	0.0040114466
17	0x3c9dcc9d	0.019262606
18	0x3cd1e92a	0.025623877
19	0x3f1d76db	0.61509484
20	0x3cb5197b	0.022106877
21	0xbead5a60	-0.33858013
22	0xbd8bb205	-0.06821064
23	0xbed340a4	-0.41260254
24	0xbe5df185	-0.21674164
25	0x3da9b30e	0.08286105
26	0xbdb906fb	-0.090345345
27	0x3c1554e0	0.009114474
28	0x3f00363d	0.5008276
29	0x3e294770	0.16531157
30	0x3d911c56	0.07085483
31	0x3e118faf	0.14214967
32	0xbd58274d	-0.052771855
33	0xbf08a91b	-0.53383034
34	0x3d042f7b	0.032271843
35	0xbbf9c3b3	-0.007622206
36	0x3e22d9e0	0.15903425
37	0xbe61816c	-0.22022027
38	0xbe878a24	-0.2647258
39	0xbd1a1b61	-0.037623767
40	0xbcdaee5d	-0.026724989
41	0x3d9f200a	0.07769783
42	0xbc259ac7	-0.010107703
43	0xbddb37b0	-0.10703981
44	0x3e014540	0.12624073
45	0xbced6d04	-0.028982647
46	0x3d4d150f	0.05006891
47	0xbd438cee	-0.047741823
48	0x3cb1add4	0.021689333
49	0x3c070d15	0.008242865
50	0x3c24734e	0.010037256
51	0xbd24cf95	-0.04023703
52	0x3dab2f4a	0.08358629
53	0xbcdf4cab	-0.027258238
54	0xbca600a2	-0.020263974
55	0x3e495786	0.19662294
56	0xbccb6323	-0.024827546
57	0xbd2d8764	-0.042365447
58	0xbd82d0d8	-0.0638749
59	0x3e318c84	0.17338759
60	0xbbab7818	-0.005232822
61	0xbe2d23d7	-0.16908203
62	0x3e0aa8c1	0.13540937
63	0xbdd0ee54	-0.102017075
64	0xbbd7d83f	-0.006587058
65	0xbd39f3bd	-0.045398463
66	0xbe228293	-0.15870123
67	0x3cf0955f	0.0293681
68	0xbd6019a3	-0.05471195
69	0xbf067aa6	-0.52530897
70	0xbdc644ce	-0.09681092
71	0xbe5e8d66	-0.21733627
72	0xbc8437cc	-0.016139887
73	0xbee4bbdb	-0.44674572
74	0xbb28e95d	-0.002577386
75	0xbd2d0d6f	-0.04224914
76	0xbb92b5cc	-0.0044772383
77	0x3e15b321	0.14619114
78	0xbe9a5946	-0.30146235
79	0xbdc9d7e0	-0.09855628
80	0x3de3910d	0.111116506
81	0xbe41bcb3	-0.1891964
82	0xbd8b9eb4	-0.068173796
83	0x3eb999c6	0.36250132
84	0x3dca73c2	0.0988536
85	0x3e0d2be9	0.13786282
86	0xbccde475	-0.02513335
87	0x3e8b2583	0.27177057
88	0xbde1c1a6	-0.11023264
89	0x3ce7d475	0.02829955
90	0xbdb8b76a	-0.090193585
91	0x3d9c8ad9	0.076436706
92	0xbf13821d	-0.5762041
93	0x3ea05880	0.3131752
94	0x3de0ef66	0.10983162
95	0x3d96da8a	0.07365902
96	0x3ca2698f	0.019825725
97	0x3e010b5f	0.12601994
98	0x3c1cec8d	0.0095778825
99	0x3dfba358	0.12287015
100	0xbeceb08f	-0.4036908
101	0x3e497eba	0.19677249
102	0x3c4d3639	0.012525135
103	0x3d6b935c	0.05751358
104	0x3c5e7a5b	0.0135789765
105	0xbe01f659	-0.1269163
106	0x3e4d1c9e	0.20030448
107	0xbe124f17	-0.14287983
108	0x3ca0a0f6	0.019608002
109	0xbcdf1042	-0.027229432
110	0x3daecfbd	0.08535717
111	0xbe09b484	-0.13447767
112	0x3cf2dfa2	0.029647652
113	0xbddcf636	-0.107891485
114	0x3cd51e17	0.026015325
115	0x3ce9942d	0.028513039
116	0xbdefb70c	-0.11704835
117	0xbe6ebb32	-0.23313597
118	0xbdd72380	-0.10504818
119	0x3e5a0a5a	0.21293011
120	0x3e9dcae3	0.30818853
121	0x3e26e322	0.16297582
122	0x3e3e8e95	0.18609078
123	0xbd9a705e	-0.075409636
124	0xbd2054e2	-0.03914345
125	0x3e0e9f7c	0.13928026
126	0xbece6a76	-0.40315598
127	0xbd86a782	-0.06574918
128	0xbe65bf7b	-0.22436325
129	0x3efa81e5	0.48927227
130	0x3eab6032	0.3347183
131	0xbd271a2f	-0.040796455
132	0x3d5ae358	0.05343947
133	0x3e2960b5	0.16540797
134	0x3d3ce676	0.046118222
135	0xbe563ab7	-0.20920835
136	0x3cf62773	0.030048108
137	0x3bb362cb	0.0054744235
138	0x3d91e121	0.07123018
139	0x3e77ce90	0.24199891
140	0xbd8dd46b	-0.06925281
141	0xbe2ec6c1	-0.17068006
142	0x3e7770ef	0.24164174
143	0x3da1c516	0.07898919
144	0x3e1d1266	0.1533905
145	0xbe7469ed	-0.23868532
146	0xbe90b76f	-0.2826495
147	0xbeb88fa5	-0.36047092
148	0x3db8183d	0.08988998
149	0xbe783fe9	-0.2424313
150	0x3d14eb45	0.036357183
151	0xbe9b0be7	-0.30282518
152	0x3cf38232	0.029725168
153	0x3e1b796c	0.15183038
154	0x3b99ad86	0.004689875
155	0xbd21e347	-0.03952339
156	0xbe812098	-0.2522018
157	0xbd8d2a38	-0.06892818
158	0xbe0b3441	-0.13594152
159	0x3e4d163b	0.20028012
160	0xbddd61e7	-0.10809689
161	0xbbebd5b5	-0.0071971067
162	0x3e572359	0.21009578
163	0x3dd04e6f	0.1017121
164	0x3e1d073e	0.15334794
165	0x3c930ef5	0.017951468
166	0x3d03030a	0.03198532
167	0x3ca6d362	0.020364467
168	0xbb9f06a1	-0.004853085
169	0xbe60a3e1	-0.21937515
170	0x3d640802	0.0556717
171	0xbd03572e	-0.032065563
172	0x3d7e7267	0.06212082
173	0x3e220c8d	0.158251
174	0x3e0a5963	0.13510661
175	0xbb42137f	-0.0029613671
176	0x3d95aa7b	0.07307907
177	0xbdd8fdad	-0.1059526
178	0x3d586e87	0.052839782
179	0x3d0637d2	0.03276808
180	0xbda6d894	-0.08146778
181	0xbe155639	-0.14583673
182	0x3e65204d	0.22375603
183	0xbdda4e04	-0.106594115
184	0xbe0c7476	-0.13716301
185	0xbe06e1cd	-0.13172074
186	0x3e689911	0.2271464
187	0xbd98d313	-0.07462134
188	0x3d4a471a	0.049384214
189	0xbcc391a2	-0.023873154
190	0x3d42adf2	0.04752917
191	0x3d63abb5	0.055583674
192	0xbec2d46a	-0.38052684
193	0xbe8f428f	-0.27980468
194	0x3dbc0782	0.091811195
195	0x3d63615c	0.05551277
196	0xbec5208c	-0.38501394
197	0xbf048fe9	-0.5178209
198	0xbdc95c02	-0.09832002
199	0xbed32cbf	-0.41245076
200	0x3e062187	0.13098727
201	0xbe8cf198	-0.2752807
202	0x3d6fd965	0.058556933
203	0x3ddec2e3	0.108770154
204	0x3dfdf8e8	0.12400991
205	0xbde2ece8	-0.110803425
206	0x3e699897	0.22812115
207	0x3eb06d47	0.34458372
208	0x3e13eecb	0.14446561
209	0xbe22775f	-0.15865849
210	0xbf177864	-0.59168077
211	0xbf08756c	-0.5330417
212	0xbf0701d1	-0.52737147
213	0xbd821485	-0.0635157
214	0xbe8743fd	-0.26419058
215	0xbee46680	-0.4460945
216	0xbeaace00	-0.3336029
217	0xbe1c19ab	-0.15244167
218	0xbec936ad	-0.39299527
219	0xbd6cd48f	-0.0578199
220	0xbf3525d8	-0.7076087
221	0xbec179db	-0.3778828
222	0xbea0a768	-0.3137772
223	0x3d231c56	0.039821945
224	0x3e465835	0.19369586
225	0xbeca83cf	-0.39553687
226	0x3e8efc7e	0.2792701
227	0x3e954933	0.2915741
228	0xbef21d1c	-0.47287834
229	0xbe3576c1	-0.17721082
230	0x3d8ac4d1	0.06775821
231	0x3e3096c2	0.1724501
232	0x3e44b166	0.19208297
233	0xbe1bc63c	-0.15212339
234	0xbef331fb	-0.4749907
235	0x3e85d146	0.26136225
236	0x3e34fe89	0.17675222
237	0xbec10a7e	-0.37703317
238	0x3dd272a2	0.10275771
239	0x3eb1e3c2	0.34744078
240	0xbec8c7cd	-0.39214936
241	0xbcdbfb1f	-0.026853142
242	0xbdcc9804	-0.09989932
243	0xbef67914	-0.4813925
244	0xbf017b05	-0.5057834
245	0xbdedf0e5	-0.116182126
246	0xbe1f651a	-0.15565911
247	0x3d9f88a6	0.077897355
248	0xbe62132d	-0.22077627
249	0xbe11e22d	-0.14246435
250	0xbe8e111a	-0.27747422
251	0x3efb7dd8	0.4911945
252	0xbe9a7a32	-0.30171353
253	0x3d920f9f	0.07131886
254	0xbefd802d	-0.49511853
255	0xbe882208	-0.26588464

main.2.bias f4 [64]
0	0x3f00b8c3	0.50281924
1	0x3a84ca45	0.0010131082
2	0x3e60755e	0.21919772
3	0x3d2ebd64	0.042661086
4	0xbe210a63	-0.15726618
5	0xbdb8bd68	-0.090205014
6	0x3e533196	0.20624384
7	0x3b255239	0.002522601
8	0x3e6a5d98	0.22887266
9	0x3db1cefc	0.08682057
10	0xbdc9476b	-0.09828075
11	0xbda70641	-0.0815549
12	0x3cc92838	0.02455531
13	0x3bbf1eb0	0.0058325157
14	0x3e391b85	0.18076904
15	0xbdc32e84	-0.095303565
16	0xbdc0d4fb	-0.09415623
17	0xbe186009	-0.14880385
18	0x3ec86554	0.39139807
19	0x3eabfb02	0.3358994
20	0xbea04645	-0.3130361
21	0xbe34eed7	-0.17669235
22	0xbda84110	-0.08215535
23	0x3f55ec4f	0.83563703
24	0x3f42f715	0.7615827
25	0xbea138fd	-0.3148879
26	0x3cae5639	0.021281349
27	0x3dc7f4a2	0.09763457
28	0xbd2e9ba3	-0.042628895
29	0xbe9a034f	-0.3008065
30	0x3d46bec5	0.048521776
31	0xbdd2e664	-0.1029785
32	0x3d7778b0	0.06041783
33	0x3d6a0145	0.057130117
34	0xbde3c945	-0.111223735
35	0xbdb31b69	-0.087454624
36	0x3f113d43	0.567341
37	0xbdd5ffc4	-0.10449174
38	0x3dd1bb0c	0.102407545
39	0x3977844d	0.00023605041
40	0x3d1085f6	0.035284005
41	0xbd3c6ced	-0.046002317
42	0xbc94c68d	-0.018161083
43	0x3f294998	0.6612792
44	0x3f21bcfc	0.6317899
45	0x3f0395d8	0.5140052
46	0x3e4e9492	0.20173863
47	0x3eb6e7c0	0.35723686
48	0xbe72dfaf	-0.23718141
49	0xbdb25b61	-0.087088354
50	0xbe189d98	-0.14903867
51	0x3b63db3b	0.0034768123
52	0xbea85185	-0.32874694
53	0xbdfe0a8f	-0.12404358
54	0x3c362cb0	0.011119053
55	0xbd96b39d	-0.07358477
56	0x3db55f0c	0.088560194
57	0xbdc84644	-0.09779027
58	0x3f267349	0.6501966
59	0xbd090e1f	-0.033460733
60	0x3e36bfa3	0.17846541
61	0xbe4a1f79	-0.19738568
62	0xbd3af6d4	-0.04564555
63	0x3ee30d4a	0.44346076

main.4.weight f4 [4, 64]
0	0x3ee3cedc	0.4449376
1	0x3e0c34ac	0.13691968
2	0x3e2a56ae	0.16634628
3	0x3cb520a1	0.022110285
4	0x3e9b1721	0.30291083
5	0xbe57a8ef	-0.21060537
6	0x3d83e343	0.06439831
7	0xbdbb92f1	-0.09158886
8	0x3e5b02d7	0.21387802
9	0x3f010c08	0.50408983
10	0xbc88cbfb	-0.016698828
11	0xbebbbb42	-0.36666304
12	0xbd61ee3c	-0.05515884
13	0xbd06d829	-0.03292099
14	0x3e9700a3	0.29492673
15	0x3e79a1fb	0.24378197
16	0xbda1c9f7	-0.0789985
17	0xbe6befc4	-0.23040682
18	0x3e505244	0.20343882
19	0x3e919206	0.2843172
20	0xbe42c5fd	-0.19020839
21	0x3f223ac7	0.6337094
22	0xbd5d27aa	-0.053992905
23	0x3e9a6bdd	0.30160418
24	0x3e69a6b2	0.22817495
25	0x3ed9d658	0.42546344
26	0x3e104bc1	0.14091398
27	0x3e8b2a5e	0.2718076
28	0xbf17aa35	-0.5924409
29	0xbe1586ea	-0.14602247
30	0x3b454973	0.0030103594
31	0x3e83976b	0.2570146
32	0x3d2b634a	0.041842736
33	0x3e9ffade	0.31246084
34	0x3d9e8964	0.07741049
35	0xbea8e972	-0.32990605
36	0x3e72d31b	0.23713343
37	0xbeec904e	-0.46203846
38	0x3e8f374a	0.2797187
39	0xbe38bb98	-0.18040311
40	0x3edf425e	0.43605322
41	0xbc78bb80	-0.015181422
42	0xbe456558	-0.19276941
43	0x3e3c6742	0.18398765
44	0x3e91e79a	0.2849701
45	0x3e20d3fd	0.15705867
46	0x3e3ba17a	0.18323317
47	0x3e63ff74	0.22265416
48	0xbe09a8c0	-0.1344328
49	0xbdedafc0	-0.11605787
50	0xbf18f4b6	-0.597484
51	0x3dc73779	0.097273774
52	0xbe956bdd	-0.29183856
53	0xbed18714	-0.4092337
54	0xbcd3dc1c	-0.025861792
55	0xbe2888b8	-0.16458404
56	0x3d301d0a	0.042996444
57	0x3e2d8706	0.16946039
58	0x3e344798	0.17605436
59	0x3ed41659	0.414233
60	0x3e409adf	0.18809079
61	0x3d24abc1	0.04020286
62	0xbd5b4b37	-0.053538527
63	0x3dda34ee	0.10654627
64	0x3efab32b	0.4896482
65	0x3e2c177b	0.16805832
66	0x3d919fb2	0.071105376
67	0x3dd1a987	0.10237413
68	0x3eae5582	0.34049612
69	0xbd412891	-0.047157828
70	0x3e3708d0	0.17874455
71	0x3dd4081a	0.10353108
72	0x3e8340a8	0.25635266
73	0x3ef31529	0.4747708
74	0x3c215897	0.009847782
75	0xbd8077ce	-0.06272851
76	0x3e0175be	0.12642571
77	0xbf30f712	-0.69127
78	0x3eb76a22	0.3582316
79	0x3e9f2124	0.31079972
80	0x3dad4ae3	0.08461549
81	0xbd223226	-0.039598607
82	0x3e2c29e8	0.16812861
83	0x3e6255e6	0.2210308
84	0xbdbc0093	-0.09179797
85	0x3e3a1264	0.18171078
86	0xbe688087	-0.2270528
87	0x3e67e3a6	0.22645435
88	0x3ea31026	0.31848258
89	0xbeccce98	-0.4000137
90	0xbd0fa01d	-0.035064805
91	0x3e63764b	0.22213094
92	0x3d3d8532	0.046269603
93	0xbe0adbb0	-0.13560367
94	0xbf03e927	-0.5152764
95	0x3ebfbb4b	0.3744758
96	0x3e127a1e	0.14304397
97	0x3e5ee5ee	0.21767399
98	0xbe0f4229	-0.13990082
99	0xbd64b208	-0.055833846
100	0x3e9a6b65	0.3016006
101	0xbe9d54d0	-0.3072877
102	0x3efd1f2f	0.49437854
103	0xbdf4899d	-0.1194031
104	0x3ebb5521	0.36588386
105	0xbdf924cb	-0.12165221
106	0x3e81edbd	0.25376692
107	0x3e2d9454	0.16951114
108	0x3e56d2ee	0.20978901
109	0x3e3abb44	0.18235499
110	0x3e4a2161	0.19739296
111	0x3e8f3a3b	0.27974114
112	0xbe33ad55	-0.1754659
113	0xbda9388f	-0.08262741
114	0x3de88b10	0.11354649
115	0x3c87f582	0.01659656
116	0xbe4297cf	-0.19003223
117	0xbe4e33c1	-0.2013693
118	0x3d8b5a71	0.0680436
119	0xbd39fd26	-0.045407437
120	0xbf2f8d3c	-0.6857488
121	0xbf475841	-0.7786904
122	0x3e2beab5	0.16788752
123	0x3effb3d7	0.49941894
124	0x3dcfad66	0.10140495
125	0x3e5a69e5	0.21329458
126	0x3cae11c6	0.02124871
127	0x3df17af4	0.117910296
128	0x3e3803e2	0.17970231
129	0x3d62febd	0.05541872
130	0xbaddf243	-0.0016933162
131	0xbdb3cf03	-0.08779719
132	0x3cd5bde4	0.026091523
133	0xbdfdfd45	-0.12401823
134	0x3e8f9336	0.28042
135	0x3dbce0fb	0.09222599
136	0x3d667d4e	0.056271844
137	0x3f161b19	0.586351
138	0x3e349095	0.17633279
139	0xbdee6246	-0.11639838
140	0xbede3412	-0.43399101
141	0xbe624fe1	-0.22100784
142	0x3e38b80c	0.18038958
143	0x3e905da8	0.28196454
144	0x3e68cb17	0.22733723
145	0xbcdbc852	-0.026828919
146	0x3e33ddf0	0.17565131
147	0x3de97d38	0.11400837
148	0x3e48fa3d	0.19626708
149	0xbe188a25	-0.14896448
150	0xbedc4cdc	-0.4302739
151	0x3e9a3810	0.30120897
152	0x3e81d7ee	0.25360054
153	0xbe7b3c01	-0.24534608
154	0x3e69d527	0.22835217
155	0x3f12afdb	0.57299584
156	0x3eab32d3	0.33437213
157	0xbd91e3b4	-0.07123509
158	0xbe981c4e	-0.29709095
159	0xbf0f184e	-0.5589646
160	0x3dd919bf	0.10600614
161	0x3eac33dc	0.33633316
162	0x3ee2c68f	0.44292113
163	0xbe3e9ed6	-0.18615279
164	0x3e2a3c7e	0.16624638
165	0xbe1bb0fd	-0.15204234
166	0x3ef407ac	0.47662103
167	0xbe94497c	-0.28962314
168	0xbcd82ca9	-0.026388483
169	0x3e67abeb	0.22624175
170	0x3e2c87a9	0.16848625
171	0x3e5f96bd	0.21834846
172	0x3e855975	0.26044813
173	0x3e8704a4	0.26370728
174	0xbcbd053f	-0.02307379
175	0x3e265c1d	0.16246076
176	0xbc67fa2f	-0.0141587695
177	0xbeb10c32	-0.34579617
178	0xbedd7a91	-0.43257573
179	0xbf0df7e3	-0.5545637
180	0xbe41d625	-0.18929346
181	0xbe86580e	-0.26239055
182	0x3e84c877	0.25934193
183	0xbed925e5	-0.42411724
184	0x3ebce410	0.36892748
185	0x3e0f519c	0.13995975
186	0x3e8bcbad	0.2730383
187	0x3f01a3a3	0.50640315
188	0x3da433b2	0.080176726
189	0x3ee39b8b	0.44454607
190	0x3dbb79f0	0.09154117
191	0x3dfd8fc1	0.123809345
192	0x3e92f4e1	0.28702453
193	0x3e340915	0.1758159
194	0xbdb5b737	-0.08872836
195	0xbf7725ff	-0.9654235
196	0x3ed2a67a	0.41142637
197	0x3e7e2ce5	0.24821813
198	0x3e22c25a	0.15894452
199	0x3e8ae564	0.27128136
200	0xbd875024	-0.066070825
201	0x3f18ce6d	0.5968998
202	0xbe816246	-0.2527029
203	0xbd9b2eb2	-0.07577266
204	0x3dafd5c2	0.08585693
205	0x3e207205	0.15668495
206	0x3ea2a0af	0.31763217
207	0x3ee7ec16	0.45297307
208	0x3e6ff1d5	0.23432095
209	0xbebc9989	-0.36835888
210	0x3e771ded	0.2413251
211	0x3dc0cdc4	0.09414247
212	0x3e587615	0.21138795
213	0xbdb79ec1	-0.08965827
214	0xbd390cf7	-0.04517838
215	0x3ea712e5	0.32631603
216	0x3e551c6e	0.20811626
217	0xbf1ce256	-0.6128286
218	0x3e22238a	0.1583387
219	0x3e8c0cba	0.2735346
220	0xbf08059e	-0.5313357
221	0xbe9f3a80	-0.3109932
222	0x3ed156be	0.40886492
223	0x3e97cecf	0.2964997
224	0x3ea1e576	0.31620377
225	0x3e647572	0.22310427
226	0x3dba3aed	0.090932705
227	0xbf17df23	-0.59324855
228	0x3e3499b4	0.17636758
229	0x3d6eb618	0.058279127
230	0x3e8a7109	0.27039364
231	0xbe478bb8	-0.19486892
232	0x3e9dd2aa	0.30824786
233	0x3e478865	0.19485624
234	0x3e7ee191	0.24890734
235	0x3e6e085a	0.23245373
236	0x3e5d655b	0.21620695
237	0x3e729c65	0.23692472
238	0x3e7c74bc	0.24653906
239	0xbcb49b26	-0.022046637
240	0xbede9508	-0.43473077
241	0xbd369694	-0.044577196
242	0xbe9ec3e7	-0.31008837
243	0x3e8cdf8d	0.27514306
244	0x3d068ad6	0.032847248
245	0x3b1bf057	0.0023794377
246	0xbdaec4b4	-0.08533612
247	0xbeadd7be	-0.3395366
248	0x3e8a5e28	0.2702496
249	0x3d461715	0.048361856
250	0x3e52aeaf	0.20574449
251	0x3e8a95d6	0.2706744
252	0x3db7333f	0.08945321
253	0xbe047646	-0.12935743
254	0x3e918b9e	0.28426832
255	0x3e768bcd	0.24076767

main.4.bias f4 [4]
0	0x3f0a9638	0.54135466
1	0x3eeeeb14	0.46663725
2	0x3ef0eb70	0.47054625
3	0x3ee6ffd2	0.4511705
