models/fixed_target_dueling.pt (torch, 94309 bytes, 17 tensors)

fc1.weight f4 [64, 37]
000000 6b d2 1e 3d ef 6e a1 bd 53 cd f3 bd 8c 2f 9e bd
       0.03877489 -0.07882487 -0.11904397 -0.077239126
000010 97 24 e2 3d 83 53 01 3d f8 57 05 3c c6 59 fc 3c
       0.11042135 0.031573784 0.008138649 0.030804526
000020 7d 79 e7 bc 22 a0 d0 bb 8a 8e 28 bd 65 ef bb bd
       -0.028256172 -0.0063667456 -0.04115156 -0.0917652
000030 fb 33 d7 3d 0e dc 2c bd 1f 94 c7 3c eb ec 55 3b
       0.10507961 -0.042202048 0.024362622 0.0032642435
000040 61 c5 b1 bd ab 5c 26 bd 1b ec ce 3d 8a a5 0d be
       -0.08680225 -0.04061572 0.10103627 -0.1383268
000050 41 da 01 3e 7f 26 18 3d 99 48 a0 3d 85 d8 02 be
       0.12680914 0.037146088 0.07826347 -0.12777908
000060 9d ba d5 3d dc d7 80 3b ea bc 35 bb 7e 94 e3 bd
       0.10435984 0.0039319824 -0.002773101 -0.11112307
000070 84 31 6c bd c0 7d a8 3d 07 88 92 3d 37 b5 02 be
       -0.05766441 0.0822711 0.071548514 -0.1276444
000080 07 30 08 3e 03 83 98 3d 20 20 00 be bd 56 b6 bd
       0.13299571 0.074468635 -0.12512255 -0.08903263
000090 35 92 8d 3c 73 08 27 be 69 60 66 3c ef b3 bb 3d
       0.017281631 -0.16311817 0.014061072 0.09165179
0000a0 8a 5f 12 be ed 8b 1b be c7 04 74 bd f0 fd 10 3e
       -0.14294258 -0.15190096 -0.05957487 0.1415937
0000b0 d6 a5 dc 3d 53 01 ce 3d d8 c1 3b bd 37 0a 11 be
       0.10773818 0.10058846 -0.04583916 -0.14164053
0000c0 f6 ad b0 bd ef 96 01 3e c7 9a 08 be dd 0b 8a 3c
       -0.086269304 0.12655233 -0.13340293 0.01685136
0000d0 60 64 38 bd d7 16 46 3d 21 dc ab 3b d2 25 fa bd
       -0.0450176 0.048361626 0.0052447473 -0.12214245
0000e0 03 05 27 be 81 62 d0 bd ec 82 b9 bc c4 d6 3d 3d
       -0.16310506 -0.10175038 -0.022645436 0.046347395
0000f0 a1 4f e4 3d 14 df e6 3b 76 25 65 3d 49 c5 a6 bd
       0.111480005 0.007045636 0.05594393 -0.08143098
000100 b9 8f 8f bd 4f 5d 78 3c 5b e1 99 bd 94 c1 a0 bd
       -0.07009835 0.015158965 -0.07513686 -0.07849422
000110 35 bf ed 3d dc 8b 11 bd 5c 67 87 bc da 59 30 bc
       0.116087355 -0.03553377 -0.016528778 -0.01076361
000120 91 a7 14 be 1e 9e a6 bd 5e b6 e4 3a a4 45 c0 bd
       -0.14517047 -0.08135627 0.0017449369 -0.09388283
000130 12 f3 0b 3e ab 71 4e bc 18 77 d3 3d 29 59 15 be
       0.13666943 -0.012600343 0.1032545 -0.14584793
000140 d5 36 8b bd 20 e0 50 bd 4d 36 b5 3d 84 34 07 3e
       -0.06797568 -0.050994992 0.08848248 0.13203627
000150 46 11 6e 3d 1e 82 1d be da 59 be 3d 09 a9 1f 3e
       0.058121942 -0.15381667 0.092944816 0.15591826
000160 d0 47 fc 3b fb c4 d6 bd e6 7f 13 3c 31 c9 c0 bd
       0.0076989904 -0.1048679 0.009002661 -0.09413374
000170 cf 62 09 be a9 02 7c bd cd 59 e0 3d 73 69 0f 3e
       -0.13416599 -0.061525974 0.10954628 0.1400507
000180 22 25 7d 3d d7 ed 37 3b cd de ef bb 5c 8a cd bd
       0.06180299 0.0028065348 -0.007320261 -0.100361556
000190 d2 f6 b7 bd 81 da 0d 3e bd 2d 93 3d 51 12 0a 3d
       -0.08982624 0.13852884 0.07186458 0.033708874
0001a0 53 60 56 ba 4b 50 06 bc 70 ba 0d be a2 76 ce 3d
       -0.00081778056 -0.008197854 -0.13840652 0.10081221
0001b0 1a e9 08 3e 3c 99 15 be 2f db ce bd a5 e5 6b bd
       0.13370171 -0.14609236 -0.101004 -0.057592053
0001c0 02 b2 98 bc d9 10 8e bd 81 aa 10 3e 6b df 4b 3c
       -0.018639568 -0.06936807 0.14127542 0.012443404
0001d0 5e 88 fb bd b8 bc 56 bd 5d b4 23 3e f9 22 a9 3d
       -0.12281869 -0.05242607 0.15986772 0.08258624
0001e0 95 de 18 3d 53 ec da bd 25 87 a0 3b 43 9b 14 3d
       0.037321646 -0.106896065 0.004898923 0.03628088
0001f0 1f 4e e2 bc 38 ba 0e be 59 ca 20 3e 7a d8 06 3e
       -0.027625142 -0.13938224 0.1570219 0.13168517
000200 8c 7a 5e bc 6c 7e 67 bd 9f 21 f4 3d df df 15 be
       -0.013579022 -0.05651705 0.11920475 -0.14636181
000210 06 61 8a 3d 43 79 05 3e b4 b5 04 3e 6d 0f 26 be
       0.06756787 0.13034539 0.12959939 -0.16216822
000220 93 85 1e 3e 92 8a 1f 3e 2e a1 07 3e 63 8f 5a 3d
       0.15480642 0.15580204 0.13245079 0.0533594
000230 71 fc 1c be fa b1 90 3d be 59 17 be 62 b4 1a be
       -0.15330674 0.07065196 -0.14780328 -0.15107873
000240 fc ed 4b bd 60 f4 11 3e 49 cd 0b be 95 bd dc bd
       -0.049787506 0.14253378 -0.13652529 -0.107783474
000250 bf f5 d6 bd b4 fb ea bd 57 95 01 be d2 00 ab ba
       -0.10496091 -0.1147379 -0.12654625 -0.0013046509
000260 be f8 18 be 7e c2 f2 3d d0 7e ff 3d 44 f6 25 be
       -0.14938638 0.11853503 0.124753594 -0.16207224
000270 c7 f4 9b 3d a7 17 e3 3d 14 20 d3 bd 70 a8 00 be
       0.07615047 0.11088496 -0.10308853 -0.12564254
000280 a8 3a 2c 3d e8 f0 e9 3d 42 c7 14 bd 3e d3 76 bd
       0.042048126 0.11422902 -0.03632284 -0.06026005
000290 00 3d 36 bd 46 70 7c 3d 3c 75 c5 3b 28 71 a7 bd
       -0.044491768 0.06163051 0.0060259383 -0.0817588
0002a0 2c c5 94 3d 1c c7 11 be 4b 83 c7 bd 60 94 86 bd
       0.0726417 -0.1423611 -0.09741839 -0.06571269
0002b0 78 6c 80 3d 55 93 d2 3d 2a ef 98 bc d0 30 11 be
       0.06270689 0.102820076 -0.01866873 -0.14178777
0002c0 8a ad 0e be 6b 3a 90 3d f3 f4 9b 3c 40 5e e6 bd
       -0.13933387 0.07042392 0.0190377 -0.112484455
0002d0 f8 30 01 be b8 5b 1d 3e 8e 78 f8 bd 1b 4e 03 bd
       -0.12616336 0.15367019 -0.12132369 -0.03205691
0002e0 86 56 24 3e 21 92 c9 bc 25 6f ee 3d c1 e6 d7 3d
       0.16048631 -0.024605813 0.11642293 0.1054206
0002f0 8f 4e 1d be f8 6c 19 3e de a7 0a be 6b f3 80 3d
       -0.15361999 0.14982975 -0.13540599 0.06296428
000300 46 a3 9a 39 0a a1 e4 3c f4 db d1 3d 48 e0 6d bd
       0.00029494817 0.02790882 0.10247031 -0.05807522
000310 52 49 63 bd 3d 46 cd bd 5f 1e c9 3d 9d 25 84 3d
       -0.055489846 -0.100231625 0.09820246 0.06452487
000320 d6 8c a6 3d 24 9a ba 3d 67 c4 92 39 62 0b e5 bd
       0.08132331 0.09111431 0.0002799362 -0.11183812
000330 76 57 0b be 0f 39 7a bd 01 69 8e bd 9c d2 88 bd
       -0.13607582 -0.06108957 -0.06953622 -0.066807956
000340 2e 6a e5 3c db e6 21 be 40 d2 01 be d7 e4 cf 3d
       0.028004732 -0.1581072 -0.1267786 0.101510696
000350 78 c0 f1 bd 80 d8 c6 bb 0e 86 c7 3d 12 19 5f bd
       -0.118042886 -0.0060682893 0.09742366 -0.05446727
000360 56 8e 4c 3d b1 34 7d 3d b4 4e 8a 3d 40 04 c1 3c
       0.04994043 0.06181783 0.06753293 0.023561597
000370 66 57 65 bd 84 5b 9b bd db dd cb 3d 8d 01 07 be
       -0.055991553 -0.075858146 0.09954425 -0.13184185
000380 3c 68 25 3e a0 97 d3 3d 70 47 22 3d 56 ae 08 3e
       0.16153044 0.103316545 0.03961891 0.13347754
000390 be 78 f0 bd 64 f6 35 3d 68 25 a9 bd 3a c8 cc 3d
       -0.1174178 0.04442443 -0.08259088 0.09999128
0003a0 b3 b7 06 bd cd f3 09 3e 7a 2a e4 bd fd a5 a1 bd
       -0.032890033 0.13471909 -0.11140914 -0.07892988
0003b0 c4 af 0f 3e 11 35 8c bd ef 8e 4e 3c 0b 4b 09 3d
       0.14031893 -0.06846059 0.01260732 0.033518832
0003c0 2f 15 83 3d 6f 1e 55 3d c0 ac 5e 3d 02 97 ac bc
       0.06400525 0.052030977 0.054363966 -0.0210681
0003d0 16 4a 02 3c 13 a6 01 3e 92 25 24 be b8 94 eb 3d
       0.007952234 0.12661009 -0.16029957 0.11502975
0003e0 b9 64 0c 3d 72 f0 0d be ed 11 14 bd 20 1d 07 be
       0.034275744 -0.13861254 -0.036149908 -0.13194704
0003f0 cb af e7 3d a6 da 21 be a1 21 b8 bc c6 19 03 3e
       0.11312827 -0.15806064 -0.022476973 0.128028

fc1.bias f4 [64]
000000 63 ed 96 bd 94 39 ca bd 38 98 9c 3d 18 06 ed bd
       -0.07369497 -0.098742634 0.07646221 -0.11573428
000010 62 0f 76 3d e2 8a d1 bd b7 ae 12 be 57 15 cc 3a
       0.060073264 -0.10231568 -0.14324461 0.0015570325
000020 f5 a3 d4 bc 5d 55 77 3d ba 72 a1 bb 6f fb 04 be
       -0.025957087 0.060384143 -0.0049270066 -0.1298654
000030 95 47 ce b8 0a 10 cd bd a0 2e 3b 3d 97 c4 fd 3d
       -9.836179e-05 -0.10012825 0.045698762 0.12391012
000040 df b8 8f bd 83 5f b9 bd 5f f8 1c bd ad 6b 03 bd
       -0.07017683 -0.090514205 -0.038322803 -0.03208511
000050 3a 50 4b 3c 07 57 39 3c f6 ba 5f 3d 08 88 78 bd
       0.012409264 0.011312253 0.05462166 -0.060676605
000060 32 bb 8a bd f4 10 11 3e b9 ef bf 3d 07 00 a6 3d
       -0.06773986 0.14166623 0.09371895 0.08105474
000070 b5 85 e0 bd 6f a2 e1 3d 63 c4 1f 3e f5 36 83 bd
       -0.109630026 0.1101731 0.1560226 -0.064069666
000080 f4 61 20 be 4b 9b 5f 3d a8 46 a6 bd a8 e5 7a 3d
       -0.15662366 0.05459146 -0.08118945 0.061254174
000090 93 5f 57 bd 9b 0d 14 3e e6 ae 3f bd 2c d8 2e 3c
       -0.05258138 0.14458315 -0.046797656 0.010671657
0000a0 73 a4 e8 bc 0c 4b ac bd f2 69 70 3d a1 40 ea 3d
       -0.028398728 -0.084127516 0.058694787 0.11438108
0000b0 ae cd 11 be ad ee bc 3b df 0d da 3d d6 45 58 3d
       -0.14238617 0.005765757 0.10647177 0.052800976
0000c0 b1 91 21 be f9 97 16 bc 44 dd 95 3d 47 09 54 3d
       -0.15778233 -0.009191507 0.07317594 0.05176666
0000d0 56 4a 28 be f3 c0 04 bd 31 f7 d6 bd 8b ff 95 bd
       -0.16434607 -0.032410573 -0.10496367 -0.073241316
0000e0 8b 25 39 bb 4a 19 17 3e c7 66 b3 3d 52 0e d7 bd
       -0.0028251137 0.14755741 0.087598376 -0.10500778
0000f0 f6 57 b2 3d 36 0d b5 bd 3c 72 1d 3d a6 72 0d be
       0.087081835 -0.088404104 0.03843902 -0.13813266

fc2.weight f4 [64, 64]
000000 a0 c5 48 3c 38 7e 45 bd 3c f9 f6 3d fe 25 ba bd
       0.012254149 -0.048216075 0.120592564 -0.09089278
000010 30 3a 7e bd a2 66 8a 3d 9c de 45 bd d0 4b 1b 3d
       -0.06206721 0.06757857 -0.048308 0.037914097
000020 52 ea e5 3d c4 7f d0 bd 88 d1 e9 bd c0 a6 11 bb
       0.11226334 -0.10180619 -0.11416918 -0.0022224635
000030 70 f3 77 3c 54 e7 7d 3d 8c fb 5e 3d 5c 81 c0 bd
       0.015133724 0.06198819 0.054439113 -0.09399673
000040 fe f8 d6 3d 98 c7 f5 bc 1a b2 9e 3d 1e e4 a1 bd
       0.1049671 -0.0300024 0.07748814 -0.07904838
000050 70 96 11 3d a0 f1 9d 3d 62 65 9a 3d 9e 05 ad bd
       0.03554386 0.07712102 0.075388685 -0.08448337
000060 84 56 9f bd 40 d6 2a 3c 40 0e ec 3c 80 83 c6 3d
       -0.077801734 0.010427058 0.028815389 0.096930504
000070 00 43 00 3a f2 9f fb 3d e8 e2 73 bd 28 1c 61 3d
       0.0004892796 0.122863665 -0.059542567 0.054958493
000080 1a ee 9f 3d d2 e6 b4 3d 5c 9c 98 bd e0 ac 95 3b
       0.07809086 0.08833088 -0.07451698 0.0045677274
000090 08 76 46 3d 04 7e 23 bd 38 b8 ac 3c b8 65 9d 3d
       0.048452407 -0.0399151 0.021083936 0.07685417
0000a0 88 77 c3 3c 70 08 1a bd 1a 36 ee bd ac a0 d7 bd
       0.023860708 -0.037605703 -0.11631413 -0.105286926
0000b0 e0 21 54 bd dc 37 a0 bd 16 2b 87 3d d0 74 ba 3c
       -0.05179012 -0.07823154 0.06600015 0.022760779
0000c0 90 f3 1f 3d 22 fd e6 bd e4 60 45 3d 00 8c de 3a
       0.03905064 -0.1127875 0.048188105 0.0016978979
0000d0 a8 2b b8 bd 36 87 cc bd bc e0 03 3d 20 46 c7 3b
       -0.08992702 -0.09986727 0.032196745 0.0060813576
0000e0 60 6b b4 bd a8 66 8d bc 40 07 f0 3b 40 a1 8d 3d
       -0.08809543 -0.017260864 0.007325083 0.069155216
0000f0 68 7e 63 bd 66 59 ca bd 6c 46 38 3d de 79 84 bd
       -0.055540472 -0.09880333 0.044989035 -0.06468557
000100 28 3d 46 bd 00 66 64 bc 1a 87 97 bd 2e a1 ca bd
       -0.048398167 -0.013940334 -0.073988155 -0.09894024
000110 08 20 7b bd 1c 93 c2 3d f0 8e 07 3d d8 13 61 bd
       -0.061309844 0.09500715 0.0330953 -0.054950565
000120 46 7d ff 3d c8 55 7a bd 98 3c 80 bd 7a 92 aa 3d
       0.12475066 -0.061116964 -0.06261557 0.083287194
000130 a2 11 a9 bd 46 db a0 bd f2 39 e1 3d e4 08 8e bd
       -0.08255316 -0.07854323 0.1099738 -0.069352895
000140 7c ab b7 3d e0 c3 be 3d 54 b5 b0 bd b0 32 f4 bc
       0.08968255 0.09314704 -0.086283356 -0.029809326
000150 62 56 f2 3d 8a 31 bb bd 04 b8 ac bd de b1 d1 3d
       0.118328825 -0.09140308 -0.08433536 0.102390036
000160 8c a7 dc bd 70 f0 ad 3c 90 53 23 bd 6c 0e ea bd
       -0.107741445 0.021232814 -0.039874613 -0.11428532
000170 28 92 b7 bd 44 17 5b 3d 9c d4 48 3d 10 b7 83 bc
       -0.08963424 0.053488985 0.049030885 -0.016078502
000180 70 0f ae bd a8 d6 97 3c b0 0f b5 bc a0 e2 85 3d
       -0.08499038 0.018534973 -0.022102207 0.06537366
000190 80 04 35 bd 0c cb 32 bd 94 01 b1 3d 68 fc 21 bd
       -0.044193745 -0.04365067 0.08642879 -0.039547354
0001a0 f2 48 a0 bd c8 b8 69 3d e0 b0 22 3d 60 50 dd 3b
       -0.07826413 0.057060987 0.039719462 0.006753966
0001b0 74 49 7f bd dc e8 a3 bd 70 91 58 3c 40 99 d7 3c
       -0.06232591 -0.08003399 0.013218269 0.026318192
0001c0 a0 15 b9 bd a2 e3 8e 3d 00 a4 ae bb b4 d2 76 3d
       -0.09037328 0.06977011 -0.005329609 0.060259536
0001d0 46 06 b7 3d 12 62 d1 3d ec 71 ed 3d a0 09 9f 3b
       0.089367434 0.102237836 0.115939945 0.0048534423
0001e0 0c ad 93 3d 16 9d 9f 3d 54 ad 2a 3d 08 ce 8a bd
       0.072107404 0.07793634 0.041669205 -0.067775786
0001f0 30 31 82 bc a2 7e ed bd 20 2d bd 3c 28 ef 46 3d
       -0.015892595 -0.11596419 0.023092806 0.04856792
000200 74 41 55 bd ec 58 1c 3d 98 1b a0 3d 42 81 fc bd
       -0.052064374 0.03817074 0.07817763 -0.123293415
000210 fa a1 cc 3d f2 73 d5 bd d0 63 a0 bc 2c af 92 bd
       0.09991832 -0.104225054 -0.019578844 -0.07162318
000220 ac 96 b1 bd c8 41 9b 3c 00 ab 3e bc ac ca 7f bd
       -0.086713165 0.018952265 -0.011637449 -0.062449142
000230 4c 91 1f bd 84 b4 29 3d a6 a0 80 3d 30 6e 23 bd
       -0.038956925 0.04143192 0.06280641 -0.039900005
000240 8e 25 89 3d d6 13 b8 bd 4c c6 df bd c2 cd ee 3d
       0.06696616 -0.089881584 -0.10926494 0.11660339
000250 d8 f0 dc bd 1c ce c1 3d 08 e7 f4 3d 94 b1 37 3d
       -0.10788125 0.0946314 0.11958128 0.044847086
000260 c0 f5 21 bd e4 d8 35 bd dc 7a aa bd c0 4f 10 bc
       -0.039541006 -0.044396296 -0.08324215 -0.008808076
000270 2c 56 92 3d b8 32 77 bd cc 17 38 bd 48 c8 95 3c
       0.07145342 -0.060351104 -0.04494457 0.018283978
000280 3c 7a a4 3d 80 ee f1 bb 20 48 6a bc d6 ac f5 bd
       0.08031127 -0.0073831677 -0.0142994225 -0.119958565
000290 70 1b 0f bd 98 7e 61 3d 24 5e 3d 3d 88 6f 08 bd
       -0.034938276 0.05505237 0.046232358 -0.03330949
0002a0 58 0d 50 bd e0 69 36 bc a0 39 d5 bc 74 d7 62 3d
       -0.050793976 -0.011133641 -0.026028454 0.055381253
0002b0 3e 68 89 bd 18 7d 99 3c 44 92 e6 3d b8 01 41 3d
       -0.06709336 0.018736407 0.11258367 0.04712078
0002c0 f4 ae 66 bd 28 e5 6d bd 00 5d 56 3b 30 0c 0f 3c
       -0.056319192 -0.05807987 0.003270924 0.008730933
0002d0 fa 00 c4 3d a4 82 be bd f6 3d ec bd ec 96 9c 3d
       0.09570499 -0.093022615 -0.115352556 0.076459736
0002e0 94 31 7c bd c6 d1 c0 bd 68 a2 02 3d 78 73 f8 bd
       -0.06157072 -0.09415011 0.031893164 -0.12131399
0002f0 d6 e0 93 3d 68 89 5f bd 44 10 c9 3d 34 a1 f3 bd
       0.072206184 -0.0545744 0.098175555 -0.118959814
000300 aa 07 f4 bd c8 75 4e bd a4 75 d8 3d 46 90 dd bd
       -0.11915524 -0.050405294 0.10569313 -0.108185336
000310 36 d8 9c bd 3e d3 e8 3d ce b7 c7 3d c0 11 30 3c
       -0.076584265 0.11368416 0.09751855 0.010746419
000320 84 d4 d6 bd 0a 54 c1 3d b2 dd 83 3d 34 40 bf 3d
       -0.10489753 0.09439857 0.064387694 0.09338418
000330 10 47 ca 3c ca 21 ab bd f8 e0 e7 bd b0 04 be bd
       0.024692088 -0.08356054 -0.11322206 -0.09278238
000340 6e cc fa 3d 78 ab f9 3c 6a 5a 83 3d c4 32 6e bd
       0.12246023 0.03047727 0.064137295 -0.058153883
000350 d0 c8 de 3d 44 40 16 3d 98 f9 be 3d 54 70 8e 3d
       0.10878146 0.036682382 0.0932495 0.06955019
000360 50 af 95 bd 92 b4 e1 3d 90 7d 6e bd 12 8a 94 3d
       -0.07308829 0.11020769 -0.058225214 0.07252897
000370 80 42 94 3a c4 d8 70 bd b0 2c a0 3d ac 9b 73 3d
       0.0011311322 -0.058800474 0.078210235 0.059474632
000380 30 48 5c 3c 38 6a be bd 84 50 78 3d a4 30 92 3d
       0.013444945 -0.09297603 0.06062366 0.07138184
000390 80 d1 33 bd 0c 52 0a 3d 54 c9 61 bd c2 96 92 3d
       -0.043900967 0.033769652 -0.055123642 0.07157661
0003a0 6a 7e c3 bd 78 1c 51 3d 62 35 c5 bd 08 9e eb 3c
       -0.09545596 0.05105254 -0.096293226 0.028761879
0003b0 c0 a7 70 3d e4 86 56 3d ec 6c 28 3d 02 ba f9 3d
       0.05875373 0.052374735 0.0411195 0.12193681
0003c0 ba b5 f1 bd ec 40 50 bd 10 6e 46 bd 76 ff f3 3d
       -0.1180224 -0.050843164 -0.048444808 0.1191396
0003d0 58 5a 35 3d 68 32 0b bd ec bd b7 3d e0 4a 56 3c
       0.04427561 -0.033983618 0.089717716 0.013079375
0003e0 1a 51 ee bd 58 af 8f 3c 70 52 57 bd a6 a1 ad bd
       -0.11636563 0.017539665 -0.052568853 -0.084780976
0003f0 f0 04 71 3c d4 bc 81 3d aa e9 ec bd 24 17 ea 3d
       0.01471065 0.06334844 -0.115680054 0.11430195

fc2.bias f4 [64]
000000 4a 00 9a bd 6c 12 e9 3d 90 87 b0 bc 04 3d 98 bd
       -0.075195864 0.11380467 -0.021549016 -0.07433513
000010 a8 e7 d8 3d 1c 2a d0 3d 00 e2 2b bb a8 f9 1b bd
       0.1059106 0.10164282 -0.0026227236 -0.038079888
000020 18 5e ae bd 08 00 c5 bd 04 01 1b 3d a6 28 da bd
       -0.08514041 -0.096191466 0.037842765 -0.10652284
000030 c6 01 bb 3d 1e 99 94 bd 10 91 e2 3d 04 a3 64 3d
       0.09131198 -0.07255767 0.11062825 0.055819526
000040 7e 1a 89 bd de 1a e4 bd 00 a9 75 3c d0 cb 9d 3d
       -0.06694506 -0.11137937 0.014993906 0.0770489
000050 1c 79 57 3d 3e 85 ce bd be b8 d9 bd 10 bf 61 3d
       0.052605733 -0.10084008 -0.1063094 0.055113852
000060 82 52 fd bd ac a8 78 3d 80 93 88 3b 86 18 98 bd
       -0.12369253 0.060707733 0.004167974 -0.074265525
000070 d8 ee c5 3c 3c 90 7a 3d 66 f7 91 bd 98 41 ec 3c
       0.024161741 0.06117271 -0.07127266 0.028839871
000080 fe fb cb bd 12 04 aa bd 64 34 10 bd 80 87 85 3b
       -0.09960173 -0.083015576 -0.035206214 0.0040749907
000090 0c f2 60 3d f4 d5 14 3d cc f8 4c 3d 80 8d 77 bc
       0.054918334 0.036336854 0.05004196 -0.01510942
0000a0 34 15 1c bd c4 1b f8 bd 32 d3 9f 3d 98 5d 20 bd
       -0.03810616 -0.12114671 0.07803954 -0.039151758
0000b0 10 ab c3 bd 9c af 9a bd 02 08 bc bd f8 20 87 bc
       -0.09554112 -0.07553026 -0.09181215 -0.016495213
0000c0 88 4e 5f bd a2 d2 9d bd ec 83 f8 bd f2 30 cf bd
       -0.054518253 -0.07706191 -0.12134537 -0.101167575
0000d0 d4 17 43 bd c4 e2 fd 3d 40 3d 73 bc be 89 e6 bd
       -0.047630146 0.12396768 -0.014846146 -0.11256741
0000e0 30 d3 33 3d 4c 52 fb bd 1c ad 0c 3d 00 29 91 ba
       0.043902576 -0.12271556 0.034344777 -0.0011074841
0000f0 02 0e c3 bd 24 bc 63 bd b0 b7 63 bd b0 4f bd bd
       -0.09524156 -0.055599347 -0.0555951 -0.09243715

fc3.weight f4 [4, 64]
000000 6c 24 97 bd 2a 46 96 3d 28 0a df 3d ca f0 f0 bd
       -0.07379994 0.073376015 0.10890609 -0.11764677
000010 84 11 f6 3d 18 91 63 3d a0 a1 97 3b 64 75 aa bd
       0.120150596 0.055558294 0.0046274215 -0.08323172
000020 40 72 b4 3c 66 82 dd 3d 58 e9 41 bd 8c 39 ff 3d
       0.022027135 0.10815887 -0.047341675 0.12462148
000030 60 09 99 3b dc 59 8e bd 34 16 f6 3d 10 e9 23 3c
       0.004670307 -0.06950733 0.12015954 0.010004297
000040 30 d8 04 3d 2c 91 dd bd 00 30 ef bb ca b1 ec 3d
       0.032432735 -0.10818705 -0.007299423 0.11557348
000050 a8 70 a9 3d 08 a5 ef 3c d0 19 5e bd 60 7b b4 3c
       0.082734406 0.029253498 -0.054223835 0.022031486
000060 c8 95 13 3d 30 60 a7 bd c8 38 08 3d 54 7e ce bd
       0.036031514 -0.08172643 0.033257276 -0.10082689
000070 00 18 ff 3d ac df 8b 3d 80 e8 7a bc ca ec a9 bd
       0.124557495 0.068297714 -0.015314221 -0.08297117
000080 f4 1c 97 3d c2 09 91 bd 8e d9 f1 3d c0 96 a8 3b
       0.07378569 -0.07081939 0.118090734 0.005144924
000090 9c 79 3b bd e6 e4 a5 bd 48 f9 8c bc bc 4b 72 3d
       -0.045770273 -0.081002995 -0.01720871 0.059154257
0000a0 b8 02 d0 3d f4 c6 1d bd 7c 16 ec 3d bc 46 4f bd
       0.101567686 -0.038519815 0.11527726 -0.050604567
0000b0 e6 da bc bd 18 a0 ea bc 40 f3 e9 3b a0 b0 76 3d
       -0.09221439 -0.028640792 0.0071395934 0.060227036
0000c0 70 b7 d7 3c 04 00 e6 3d ba 88 87 3d 74 c8 a8 3d
       0.026332587 0.11230472 0.066178754 0.082413584
0000d0 c6 b5 b8 3d d4 9c b4 bd de 8f f5 bd 4c e8 13 bd
       0.090190455 -0.08818975 -0.11990331 -0.036110207
0000e0 24 5a fa bd 32 b1 98 bd ec 37 7d 3d 92 d4 c3 3d
       -0.12224224 -0.07455672 0.06182091 0.09562029
0000f0 90 c8 0c bc 2c 25 1b 3d 30 70 58 bd b0 5e b6 bd
       -0.00859274 0.037877247 -0.052841365 -0.08904779
000100 1c 2c 4f 3d c2 12 a3 bd 60 79 bb bd c0 ca b8 bc
       0.050579175 -0.07962562 -0.0915401 -0.022557616
000110 58 27 df 3d 06 20 8a bd 60 e6 e7 bb 38 31 cb bd
       0.10896176 -0.06744389 -0.0070770234 -0.09921497
000120 10 04 86 3d f0 9b 87 3d f2 a7 d0 3d 4e 85 e4 bd
       0.065437436 0.066215396 0.10188283 -0.11158238
000130 a2 2d f1 bd 1c cf 9f bd d2 4a b6 bd 60 85 08 3c
       -0.11776282 -0.07803175 -0.089009896 0.00833258
000140 44 87 8f bd 98 4b 02 3d 56 93 ed 3d e4 5a 53 3d
       -0.07008222 0.031810373 0.11600368 0.051600352
000150 82 a3 c2 3d e2 bc 8e 3d bc f3 47 bd 78 fe a8 3c
       0.09503843 0.0696962 -0.048816428 0.020629153
000160 70 78 45 3d 28 eb 7a 3d fe 5f f4 bd 66 57 c8 bd
       0.04821056 0.06125942 -0.119323716 -0.09782295
000170 f4 2a 7f bd 34 aa cd bd 84 d1 40 3d e8 7c a5 3d
       -0.062296823 -0.10042229 0.04707481 0.080804646
000180 98 bc fd bc 4c c5 e1 3d 70 e4 fd bd ce 1b c5 3d
       -0.030973718 0.110239595 -0.123970866 0.09624444
000190 40 b9 f5 3c 74 40 99 bd 38 7a 3e bd 40 f5 65 3d
       0.02999556 -0.074829966 -0.046503276 0.05614209
0001a0 0e e9 c4 bd ac f4 e3 3d 28 40 e3 bd 94 3f cf 3d
       -0.09614764 0.11130652 -0.11096221 0.101195484
0001b0 a0 82 b2 3b bc f4 48 bd 60 e2 b3 3d 28 e3 d1 bc
       0.0054477006 -0.049061522 0.08783412 -0.025621012
0001c0 1e aa d0 3d d2 bb a6 3d f4 f2 47 bd 7a 93 ed 3d
       0.10188697 0.08141293 -0.048815683 0.116003945
0001d0 60 74 d1 3b 50 91 2a 3c 00 00 bb b6 40 f5 6a 3c
       0.006392047 0.010410622 -5.5730343e-06 0.014340699
0001e0 10 ed 80 bd 9c e3 5e 3d d0 7d ac 3d 88 2d fe bc
       -0.06295216 0.054416284 0.08422434 -0.03102757
0001f0 ae dc db bd d8 b0 12 3d 20 df 48 3d bc 11 be bd
       -0.10735451 0.035813183 0.049040914 -0.09280726
000200 90 8c a0 bd be 0f 9b bd c0 b5 e9 bc 98 76 af 3d
       -0.0783931 -0.07571362 -0.028529048 0.08567542
000210 28 0e b6 3c 0c 36 3c 3d 0a 1a ad bd 5a db a4 3d
       0.022223547 0.04594998 -0.08452232 0.080496505
000220 b6 9b c7 3d 20 dc a7 bc 14 84 bb 3d 08 8f b4 3c
       0.097464964 -0.020490706 0.09156051 0.022040859
000230 78 f2 fc 3d e0 f0 a7 bb f0 8e cd bc 88 e4 dd 3d
       0.12350935 -0.00512515 -0.025092572 0.108346045
000240 20 0b 6d bd cc 33 dd 3d d8 c5 11 bd 40 fd 0c bb
       -0.057871938 0.10800895 -0.03558907 -0.0021513253
000250 40 78 51 bc b0 46 b7 bc 24 d5 df 3d 68 97 e5 bd
       -0.0127850175 -0.022372574 0.10929325 -0.11210519
000260 e8 2d f1 bc 68 96 c6 3c 54 cc 5e bd d0 71 e8 3c
       -0.029440835 0.024241641 -0.05439408 0.028374583
000270 02 96 d0 3d fa 39 e8 3d c8 23 b3 bc d6 1c 80 bd
       0.10184862 0.11339183 -0.021867648 -0.062555
000280 1c 96 a3 bd 68 34 b2 bd b0 7b 64 bd a8 2b ca 3d
       -0.079876155 -0.08701402 -0.05578202 0.09871608
000290 4a 46 ed bd 80 93 35 3d 90 11 71 bd 80 73 db bb
       -0.11585672 0.04433012 -0.05885464 -0.0066971183
0002a0 56 29 e6 bd 1c 66 49 bd c8 36 9d 3c 0c 9c be bd
       -0.11238353 -0.049169645 0.01919116 -0.09307107
0002b0 d8 46 76 bd d8 ca 2a bd d8 21 87 3d 84 ef 58 3d
       -0.060126156 -0.041697353 0.06598252 0.052962795
0002c0 40 aa c7 3b 22 3a 99 bd c8 cf d5 3c b8 7e 97 bd
       0.0060932934 -0.07481791 0.026100054 -0.073972166
0002d0 cc 92 05 bd 00 a7 79 3b 5c 02 ee bd 90 1e 41 3d
       -0.0326107 0.0038093925 -0.11621544 0.047148287
0002e0 28 1e 92 3d 40 4a 2d bb c8 66 93 3c c0 c8 e3 bc
       0.07134658 -0.0026441962 0.017993346 -0.027805686
0002f0 48 b4 a8 bc ea 07 c1 bd 5e 6b f4 3d 70 3d e7 bc
       -0.020593777 -0.094253376 0.11934541 -0.028227538
000300 48 39 5b bd e0 5c 93 3d ba 33 d7 3d 1c 86 dd 3d
       -0.053521425 0.07195449 0.10507913 0.10816595
000310 f8 44 38 bd 00 69 40 bc a0 0b e9 bc 60 c4 39 bc
       -0.04498765 -0.011743784 -0.028447926 -0.011338323
000320 70 30 da bd b0 67 0e 3c 18 01 f9 3d f0 2c 5c 3c
       -0.1065377 0.008691713 0.12158412 0.013438448
000330 1c f3 9d bd 68 f6 84 3c 8e fb 8b 3d 50 df 3c 3c
       -0.07712385 0.016230777 0.068350896 0.011527851
000340 24 db a7 3d 90 90 da bd ee 07 f9 3d c2 5d ee bd
       0.08196095 -0.10672104 0.121597156 -0.11638977
000350 c4 72 b7 3d a8 7a 49 bd 50 62 7c 3d a2 b1 ea 3d
       0.08957437 -0.04918924 0.061617196 0.11459662
000360 78 63 d7 3c 40 a3 7a 3b 9e c7 f8 3d 5c a8 72 3d
       0.026292548 0.0038244277 0.12147449 0.05924259
000370 c0 30 59 3d 34 00 07 bd 3e 8e b1 3d 94 a2 c6 3d
       0.053025007 -0.032959178 0.08669709 0.09698978
000380 c0 16 47 3c 28 00 5f 3d 76 79 ea 3d f8 a3 91 3d
       0.01215142 0.05444351 0.11448948 0.07111353
000390 f4 56 5a bd 78 cb db 3d 9c 6e 6f bd b4 89 1c 3d
       -0.05330558 0.10732168 -0.058455095 0.03821726
0003a0 f8 f8 b5 bd 46 1d 88 3d 00 81 ea bc 08 d2 a9 bc
       -0.08885378 0.066462085 -0.028625965 -0.020730034
0003b0 cc 94 2e bd 3e 18 fc 3d 18 85 1e 3d dc fe 63 bd
       -0.042622373 0.12309311 0.038701147 -0.055662975
0003c0 e8 03 07 3d fc d8 33 bd 12 e7 ec 3d c4 d2 cd 3d
       0.03296271 -0.043908104 0.11567511 0.10049966
0003d0 28 a4 ae 3d b2 bd bb bd a4 04 3b 3d c8 55 94 bc
       0.08527404 -0.09167041 0.045658723 -0.01810731
0003e0 4c 7b 52 bd fe 63 91 3d 88 ea 97 3c 80 db 41 bc
       -0.051387116 0.0709915 0.01854445 -0.011832118
0003f0 ea 32 c6 3d 60 47 51 bd ba 68 bb 3d 18 c4 9f 3c
       0.0967768 -0.05109346 0.091508344 0.019502684

fc3.bias f4 [4]
000000 c4 8c e3 3d 68 9c de 3c 30 87 62 bc 68 40 9f 3d
       0.11110833 0.02717419 -0.0138261765 0.077759564

feature_layer.0.weight f4 [64, 37]
000000 a5 06 cc bd d6 10 4e 3e f5 c7 0f be 4b d5 a5 be
       -0.09962205 0.2012361 -0.14041121 -0.32389292
000010 86 14 3f bc 13 c0 dc 3d 59 f5 75 be 02 bd 9c 3d
       -0.011662608 0.10778823 -0.24019374 0.07653238
000020 31 83 1b bc 7e 73 4e c0 4e 5a 8e bd d3 60 4e 3d
       -0.009491728 -3.225799 -0.06950818 0.050385308
000030 b3 e7 63 bd 10 8e 16 3e f5 8e b5 3d 76 88 74 3d
       -0.055640887 0.1470263 0.088651575 0.05970045
000040 e5 ef fd 3c 4a 02 93 3e 62 39 10 be 06 d9 55 be
       0.03099818 0.28712684 -0.1408439 -0.20883569
000050 ea 90 da ba 89 5e 92 bd 36 7c 50 3e 51 7d 44 bd
       -0.0016675268 -0.071469374 0.20359883 -0.047971074
000060 ff 8e 63 bb 68 39 02 3e fa 7f e3 be 96 85 59 3e
       -0.0034722683 0.12717211 -0.44433576 0.21242365
000070 dc ba 4d be 16 a5 2a c0 f6 60 16 bd 39 90 70 3e
       -0.20090812 -2.666326 -0.036713563 0.23492517
000080 78 5f 5b 3b c9 95 be 3d f2 78 a4 be 3a ff b3 3a
       0.0033473652 0.09305913 -0.32123524 0.001373268
000090 2b a9 81 3c d7 3a b2 bc 44 df 6d 3d 34 79 c6 3d
       0.015827736 -0.021756573 0.05807425 0.096910864
0000a0 c2 62 29 3d a2 d6 40 bd 2f 17 95 3d be 2a da 3c
       0.04135395 -0.04707969 0.072798125 0.02663171
0000b0 65 d8 21 3f 6f 12 a1 be 73 89 1f c0 b9 1e fb bd
       0.63220817 -0.31459376 -2.4927642 -0.12261719
0000c0 b2 72 9e 3e 59 17 e3 bc 87 f8 b3 bc af ce 5a be
       0.3094688 -0.027721094 -0.021969093 -0.21367906
0000d0 b0 f2 57 3e b8 c2 37 3d f7 f1 24 be f5 28 bf 3d
       0.21088672 0.044863433 -0.16107927 0.09333984
0000e0 e0 14 3b 3d 23 8d 50 bd 05 0f ca 3d a6 ff 25 bc
       0.045674205 -0.05091585 0.09866146 -0.010131752
0000f0 4e 05 1b be 8c 96 3a bf 46 a1 e4 3d 3e 25 2a 3d
       -0.15138742 -0.72885966 0.11163573 0.041539423
000100 83 43 dd 3b c3 63 af be 04 f6 79 bd 64 86 dd bc
       0.006752433 -0.342558 -0.061025634 -0.027041622
000110 5f fe 2e 3e 9f 6f 1f bc cd c0 e1 be 92 88 ab bf
       0.17089222 -0.009731202 -0.44092408 -1.3401053
000120 30 a8 f0 3a be 9c 3d 3b c9 07 eb 3d be 9f 61 3e
       0.0018360671 0.0028932537 0.11476094 0.22033593
000130 e9 9c 22 3e d6 7f f1 bd 20 0e 03 3e df 19 11 bd
       0.15880169 -0.11791961 0.12798357 -0.035425063
000140 c6 8f 24 3d c7 69 c8 3d 2f 06 74 bf 95 d4 ad bf
       0.040176176 0.097858004 -0.95321935 -1.35805
000150 89 b0 c4 bc cf 14 f6 bd 13 48 9a 3d 6d 6b 95 bd
       -0.02400996 -0.12015688 0.07533278 -0.072958805
000160 7a c0 13 3c ca bc 63 bf f7 45 64 3e d2 e5 7a 3e
       0.009018058 -0.88959944 0.22292314 0.24501732
000170 bd 21 8a be 2d d1 66 bf 9e d5 99 3d 74 d2 47 bd
       -0.26978865 -0.90162927 0.07511447 -0.048784688
000180 a6 c1 10 3e 9e e4 3a be 55 73 33 be a6 2b 93 be
       0.14136371 -0.18251273 -0.17524464 -0.2874424
000190 6d 90 d3 3e e1 ec 41 bc 66 ef c8 be 57 2c b7 bf
       0.41321126 -0.0118362615 -0.39245147 -1.4310406
0001a0 c7 91 f0 bb 4e fc a4 bc 05 fc b3 3d 31 63 fc 3d
       -0.0073415968 -0.02013984 0.08788303 0.12323607
0001b0 8a 60 e6 be ca 46 8d bd 31 fd 0c 3d 20 75 a9 3d
       -0.44995528 -0.068982676 0.03442115 0.08274293
0001c0 0b 1f 6e 3d ee 4c ce 3d 5c 72 50 3d 88 50 29 3d
       0.058135074 0.10073267 0.05089031 0.041336566
0001d0 fb 60 1f bd 75 be 86 bc bb b1 36 bd d9 95 12 bd
       -0.038910847 -0.016448239 -0.04460309 -0.035787437
0001e0 ef 28 7f bd de 23 05 3f f8 50 82 be 93 08 c7 be
       -0.062294897 0.52007854 -0.254524 -0.3887373
0001f0 d5 6b b6 be 22 9f 1b c0 55 01 d6 bd 61 8a 76 bd
       -0.35629144 -2.4315877 -0.10449473 -0.060190562
000200 df 15 df bd f3 9b b3 bc 0b e5 5a 3d af 97 32 bb
       -0.108928435 -0.021924948 0.05344109 -0.0027251055
000210 85 26 80 3c c9 51 09 3c eb e2 07 3e 85 8a 51 3e
       0.015643368 0.0083813155 0.13270156 0.20462997
000220 ef a7 42 3c c7 ba 8c bc 69 07 3c 3d 91 20 8e bc
       0.011880859 -0.017178906 0.045905504 -0.017349513
000230 7f 8a 6c 3d cf 34 37 3d ff ed 0d 3e 17 94 82 3d
       0.057749268 0.044728097 0.1386032 0.06375902
000240 98 d2 72 3c 47 ce 60 bd e9 70 32 bc 80 7f 81 3b
       0.014820717 -0.05488422 -0.010891178 0.0039519668
000250 a5 32 36 be 37 48 5c 3d ab 0f 18 bc 4d 5b 6c 3c
       -0.17792757 0.053779807 -0.009281079 0.014426065
000260 1c 56 2c 3e 2c 6f 0c be 05 f8 35 3e 2b 2f 13 3d
       0.16829723 -0.13714284 0.17770393 0.035933655
000270 a5 6a 8b 3d 48 3c e1 3c bd 4e 1f 3e 22 2f b7 be
       0.0680745 0.027494565 0.1555738 -0.35778147
000280 31 59 c7 bd 28 42 68 3d de 69 67 be e6 ce 86 3e
       -0.09733809 0.056703717 -0.22598979 0.26329726
000290 fa bc 97 3d 90 b6 d0 bd c8 1d 1d bd 04 f0 44 3e
       0.07409091 -0.10191071 -0.03835848 0.19232184
0002a0 f0 2f 67 bd cd 53 47 3e 51 a9 4a 3d cb f2 03 be
       -0.0564422 0.19465561 0.04947788 -0.12885587
0002b0 bc 69 7f 3d 92 15 75 3e 27 5d 04 3d 27 c0 34 be
       0.062356696 0.2393401 0.0323154 -0.17651425
0002c0 4f b8 01 be f9 14 90 bf 28 1f 5e 3b d5 2d ae bd
       -0.12667964 -1.12564 0.0033893082 -0.085048355
0002d0 db d5 9f 3d c2 1e e5 bd 0c 3d 05 bc be b5 8f 3d
       0.078044616 -0.11187507 -0.0081322305 0.070170864
0002e0 68 c0 d0 bc c9 d2 dc 3d 2e 72 e4 3c be 46 bb 3b
       -0.025482371 0.107823916 0.027886476 0.0057152202
0002f0 4f 59 90 bd 3e 80 bd be 59 35 27 3e c4 28 cf be
       -0.07048284 -0.37011904 0.16328944 -0.4046079
000300 0f a9 58 3e a8 33 f6 be 3a bb fc bf 57 95 0a 3e
       0.2115824 -0.48086286 -1.9744637 0.13533531
000310 e4 92 42 be 5a 67 e0 bd 13 fa 88 be 18 98 c5 bd
       -0.19001347 -0.10957213 -0.2675329 -0.0964815
000320 c2 92 ba bd fe 21 2d bc ec a8 e4 3d 3e 3b 80 be
       -0.09110023 -0.010567186 0.11165032 -0.25045198
000330 37 a8 f0 be 31 f4 40 3d aa b2 e2 3d a3 0e 86 be
       -0.47003338 0.04710788 0.11069234 -0.26183042
000340 a0 e0 6e be b4 90 02 3e 8c 37 ae bb d0 1a 95 3e
       -0.23327875 0.12750512 -0.0053166803 0.2912202
000350 fb 5e 3a bd 75 e3 d5 bd bf b1 a1 bc d1 fb ac bd
       -0.045500737 -0.104437746 -0.019738076 -0.08446468
000360 6b 5d 92 3d eb f5 17 bd 59 48 8e 3e 90 2f 33 be
       0.07146724 -0.03709976 0.27789572 -0.17498612
000370 ab 8d 64 bc f9 0d 52 3d 50 6d b1 bd 0e 55 60 3d
       -0.013949792 0.051282857 -0.08663428 0.054768614
000380 46 5c 66 bd a8 12 90 3e 49 df b4 3e 2a 28 02 3e
       -0.056240343 0.28139234 0.35326603 0.12710634
000390 19 50 a6 be f2 07 a7 be 6b 2d e4 3d c7 64 57 3e
       -0.32482985 -0.3262325 0.11141475 0.21034537
0003a0 42 de 35 be 8e 88 8b 3d 88 0b 53 3e 4e 7d 17 3c
       -0.17760566 0.06813155 0.20609868 0.009246184
0003b0 aa 37 ae 3d 1d 7c 00 3e e7 93 41 3d 84 8b ce bd
       0.08506711 0.12547345 0.04726019 -0.10085204
0003c0 f9 bd 6f 3d b9 53 41 3d 9f e7 8e bd e6 d3 91 be
       0.05853078 0.047198985 -0.06977772 -0.28481978
0003d0 e9 48 32 3d 5d 96 03 bc 7f 70 ee bd 6c 5a 12 3e
       0.043526564 -0.008031455 -0.11642551 0.14292306
0003e0 14 c2 86 be 39 d8 4c be ef f0 ba bd de 06 ce bd
       -0.26319945 -0.20004357 -0.09127986 -0.100599036
0003f0 c5 2a 61 3e 23 38 5e bd 8f 20 1a bd f0 57 ba be
       0.21988972 -0.054252755 -0.037628707 -0.36395216

feature_layer.0.bias f4 [64]
000000 d7 76 2b bd 7b fa 25 3d 31 ae e6 3d c6 72 e0 3d
       -0.04186138 0.04052208 0.11263693 0.10959391
000010 2c e0 98 3d c9 5e 43 be 03 10 c4 bd d5 c8 c5 3d
       0.074646324 -0.19079126 -0.095733665 0.09657446
000020 1f 06 9e bd b4 18 2d bd 9a dc 42 be ea 5e 11 3d
       -0.07716011 -0.042259887 -0.19029465 0.035490908
000030 0f 3d 52 bd 07 8a a0 3b 45 3c 58 be 8c 41 d2 3d
       -0.05132776 0.0048992666 -0.21116741 0.10266408
000040 91 04 16 bd d7 0f 38 be 61 5c ef 3b da b8 ac 3c
       -0.03662545 -0.17974792 0.0073047136 0.021084238
000050 1a ba a4 3d 2f a5 02 be ef cb 58 be 62 b9 61 bc
       0.080433086 -0.12758325 -0.21171544 -0.013777109
000060 c6 dd 13 3d 92 6d db 3b a1 30 ae 3d af 12 48 3e
       0.03610017 0.0066964114 0.08505369 0.19538377
000070 2c af 13 3e 95 58 d2 bc 77 37 97 bd 54 bb 6c 3e
       0.14422292 -0.025677005 -0.07383626 0.23118335
000080 5d da e0 bd c4 7d 0e 3e cf bc f9 3b 3d 0e 84 3d
       -0.109791495 0.13915163 0.0076213847 0.06448028
000090 ca 62 45 3d 77 dd 4c 3e ae 42 75 3d e2 b6 e7 3c
       0.048189916 0.20006357 0.059878044 0.028285448
0000a0 e1 32 cc bc 47 06 f8 bd 08 13 bc 3b 11 eb a1 3c
       -0.024926605 -0.12110572 0.0057395734 0.019765409
0000b0 52 67 c7 3d 6b f4 10 bd d7 c1 e3 3d b8 1c 76 3a
       0.09736504 -0.035389345 0.111209564 0.00093884347
0000c0 e5 ad 10 3e 23 15 9d bd 3c e7 2a 3d 7e b9 84 3d
       0.14128835 -0.07670047 0.04172443 0.06480692
0000d0 c7 46 a7 bc 1d 7a 15 be 10 34 fa 3c 8f f8 a4 ba
       -0.020419491 -0.14597364 0.030542403 -0.0012586283
0000e0 c4 58 e4 3c 51 80 aa 3c 4b 28 c1 3d ec 38 87 bc
       0.027874358 0.02081314 0.094315134 -0.016506635
0000f0 92 a8 81 3d ca d2 e5 bc a1 82 80 bc 0e 01 ce bd
       0.0633098 -0.028054614 -0.015687289 -0.10058795

feature_layer.2.weight f4 [64, 64]
000000 d8 ad aa bd 61 34 54 3d d4 a2 84 3e 33 90 5d bf
       -0.08333939 0.051807765 0.25905478 -0.86548156
000010 75 df 07 be ab 00 6d 3e 0b 32 d1 3c 5e d5 5a 3e
       -0.13268836 0.23144786 0.025536558 0.21370456
000020 8a 49 84 3d 95 cd 70 3d e1 16 04 be 90 0a 7f 3e
       0.06459339 0.05878981 -0.12899353 0.24906373
000030 85 c4 b1 3d 80 7b bd 3d 2b 03 59 bd 9c 7c 66 3c
       0.08680061 0.092520714 -0.052981537 0.014067795
000040 aa ee 87 3c 80 3b 3b bd be ee 47 3d e7 5f 93 bc
       0.016593296 -0.04571104 0.048811667 -0.017990066
000050 1d 8a 0a bf e7 13 96 3d ae 52 31 3d 64 6a 23 bd
       -0.54116994 0.07328015 0.04329174 -0.039896384
000060 7a b0 e8 be 1a f2 ef bd e5 a0 90 be 0c 23 81 bd
       -0.4544714 -0.11716099 -0.28247753 -0.06305513
000070 4d 68 84 3e 92 d4 9f 3d e0 f6 ee 3c 89 ef 8a be
       0.25860825 0.078042164 0.029170454 -0.27135876
000080 53 02 11 be 79 fb c4 be 4f f6 f1 3d 2a f8 d1 3c
       -0.14161043 -0.38473108 0.11814558 0.02563103
000090 a8 93 fd 3a 86 60 32 bf ac a3 dc 3d 67 2d d5 3d
       0.0019346373 -0.69678533 0.107734054 0.104090504
0000a0 79 40 b1 bd 3b 0d e6 3b 3c 32 e1 3d 70 7f f8 3d
       -0.08654875 0.00702062 0.109959096 0.12133682
0000b0 a2 38 96 3c f5 d9 f9 3d 85 bc 3a bc 51 0c 99 3d
       0.018337552 0.12199775 -0.011397486 0.07473052
0000c0 75 aa 62 3d 1f ac 8a 3d f4 d5 0c bd 53 08 ab 3c
       0.05533834 0.06771111 -0.03438373 0.020877993
0000d0 91 70 b5 3b 44 40 4e bc 1f cc be 3d 80 c6 ce be
       0.0055371006 -0.012588564 0.09316277 -0.40385818
0000e0 9e 39 fc bd 88 28 78 3e 28 d2 df 3d 87 27 4c be
       -0.12315677 0.24234211 0.10928756 -0.19936953
0000f0 c3 31 9e 3d de d4 50 bd 5d 64 a4 3c c2 74 e1 bd
       0.07724335 -0.050984256 0.020067388 -0.11008598
000100 92 35 17 3e 29 c1 17 be d5 96 06 3e c3 3f 83 be
       0.14766529 -0.14819779 0.13143475 -0.25634584
000110 8c 3a 46 3d d1 f7 1f be d8 78 d2 bd 6e 5b 61 be
       0.04839568 -0.15621878 -0.10276955 -0.22007534
000120 42 55 81 be f5 53 bf bd d0 09 29 be bf e0 af bd
       -0.2526036 -0.093421854 -0.1650765 -0.08587789
000130 5f 3b a7 3e 30 3a e0 3d 1a 18 c7 be c8 d4 5b be
       0.32662484 0.109485984 -0.38885576 -0.21467888
000140 bf 68 60 3e df a3 79 3e db 2a 8d 3d 40 80 83 bc
       0.21914957 0.24378918 0.0689294 -0.016052365
000150 81 8c a6 bd f0 11 0b 3e 76 8c fb 3d f0 52 9a bd
       -0.08132268 0.13581061 0.1228265 -0.0753535
000160 c6 d2 9c 3d b0 4b c0 be 16 71 ed bc 7b 55 f9 bd
       0.07657389 -0.37557745 -0.028984588 -0.12174507
000170 bb b6 ac be ad 3b a8 be 56 46 81 be d6 1c 0a be
       -0.33733162 -0.3285803 -0.25248975 -0.13487563
000180 f4 62 4b 3d 26 ac cb 3d dc 72 c4 be 78 ed 72 3e
       0.049654916 0.09944944 -0.3836888 0.237234
000190 bb d5 85 3d 0a 7f 36 3e 98 e5 f3 bd dc 5b a7 3d
       0.065349065 0.17821899 -0.11909026 0.08171818
0001a0 06 44 c5 3d 31 26 8b 3e eb f2 9f bd 37 85 b6 bd
       0.09632115 0.27177575 -0.07810005 -0.089121275
0001b0 73 88 81 be de 9c 51 bd 1b 6f 09 3e a1 42 8e 3e
       -0.25299415 -0.05117499 0.1342129 0.2778521
0001c0 2c 75 90 be f0 66 25 be 04 b6 16 3e cd 6b 6e bd
       -0.28214395 -0.16152549 0.14717871 -0.058208276
0001d0 f7 2a 16 be 48 26 6a bc aa 4b 5b be 5b e7 ae 3e
       -0.14664827 -0.0142913535 -0.21415582 0.34160885
0001e0 2c e6 c6 bd 65 e6 09 be a5 36 4c 3e 19 96 67 be
       -0.097118706 -0.13466795 0.1994272 -0.22615851
0001f0 6d e3 58 3e 21 a0 0d bc 06 01 23 3e 9c ef 07 bc
       0.21180506 -0.008644135 0.15918359 -0.008296873
000200 0a eb c7 3e c2 87 3d be ad e4 0d 3d 52 9f 1a be
       0.39046508 -0.18508819 0.03464191 -0.15099838
000210 82 01 ef 3d 36 0a b9 3c 7d 16 46 bd 88 3c a2 3d
       0.116702095 0.022587877 -0.04836129 0.07921702
000220 21 d9 ad 3e 6e e9 2f 3e 20 95 84 be 9b 2d c8 3d
       0.3395472 0.1717889 -0.25895023 0.097743236
000230 24 2b 93 3e 6b 56 55 be e7 d5 bc 3c 87 00 52 3e
       0.2874385 -0.20833747 0.023051215 0.20508014
000240 20 19 22 3e e3 81 e3 bd a4 0d ef 3e 02 cf 1c be
       0.15829897 -0.11108758 0.46690094 -0.15313342
000250 c6 50 bf 3e fe 92 42 be 7a 2b 9c be 96 94 34 bf
       0.37366313 -0.19001386 -0.3050192 -0.70539224
000260 06 b3 2b be 55 48 50 be 77 06 8f 3e 25 37 37 3e
       -0.16767511 -0.20340092 0.2793462 0.1789213
000270 c1 f8 a9 bd 59 38 4a be 6c 79 31 bd 99 72 96 be
       -0.08299399 -0.19748057 -0.043328688 -0.29384306
000280 7d f6 d4 be 98 70 29 bf 3b 17 e9 be 08 43 e1 3d
       -0.41594306 -0.6618743 -0.45525536 0.10999113
000290 5d cb 82 be e2 80 4a 3d 45 d6 3a be 63 9c 82 3d
       -0.2554578 0.04943932 -0.182458 0.06377485
0002a0 5d 3b 43 bd 5a b2 0d bb ab 6f 21 be 90 12 13 3d
       -0.047664035 -0.0021621198 -0.15765254 0.035906374
0002b0 5a 14 14 bc 48 57 24 be 29 43 a6 be c2 ec b0 3d
       -0.009038055 -0.1604892 -0.32473114 0.08638908
0002c0 0d 06 c9 3d 76 b2 c1 3e 74 76 21 3e 7b 25 ea 3c
       0.09815607 0.37831467 0.15767843 0.028582325
0002d0 e9 2f a5 3b b2 a1 f7 3d 91 df 5e 3c 90 e8 0a 3e
       0.0050411117 0.12091388 0.013603107 0.13565278
0002e0 da 2c 89 3c f9 85 7c be 7f 91 0c be 78 56 00 be
       0.01674502 -0.24660482 -0.13727377 -0.12532985
0002f0 20 51 08 3e ba a2 1a 3d 9b c5 67 bd cd 8f 23 3e
       0.13312197 0.037752844 -0.056584936 0.15972824
000300 42 e2 a3 bc 24 70 a0 bd 0f 2c d2 3e 98 b8 10 be
       -0.02000535 -0.07833889 0.4104924 -0.14132917
000310 69 12 2d be 84 09 d0 3e 90 9b c4 be 55 9a b6 bd
       -0.16901554 0.4063226 -0.38399935 -0.08916155
000320 49 50 2e 3d 34 ba 0f bf 96 f4 16 be 00 b0 b9 be
       0.042557035 -0.561435 -0.1474174 -0.3626709
000330 24 d6 d5 3d 96 ce 27 bf 4a 85 9d 3d 2e f5 c9 bd
       0.10441235 -0.655496 0.076914385 -0.098612174
000340 df 0a 9c 3d b1 aa db be 79 47 0a 3e b2 c1 06 be
       0.07619261 -0.42903665 0.13503827 -0.13159826
000350 c7 36 80 be da b7 2f be be b0 51 3d 6d 8d 16 be
       -0.25041792 -0.17159978 0.051193945 -0.14702387
000360 d2 86 06 3e 51 da d2 bd 53 17 30 be 54 21 0b bd
       0.13137367 -0.10295547 -0.17196397 -0.03396733
000370 a4 c2 83 bd e3 79 61 3e 8d e7 64 3e 2b 2c 1b be
       -0.06433609 0.22019152 0.22353955 -0.15153567
000380 0f 1c f4 ba 82 db 5a bd 64 b4 90 3d db ee 22 bf
       -0.0018624085 -0.053431995 0.07065657 -0.63645715
000390 b1 05 a8 be 7b e1 b8 bd 6f 57 6f 3e 8f 74 ac bc
       -0.32816842 -0.09027382 0.23373197 -0.021051673
0003a0 71 39 00 bf 07 38 a5 bc fa 7f 31 bc 30 29 56 3d
       -0.5008765 -0.020168317 -0.010833735 0.052285373
0003b0 b1 8e 82 be 56 43 3c be 12 e8 f3 be 34 44 2f 3e
       -0.2549949 -0.18385062 -0.47637993 0.17115861
0003c0 20 42 4a 3e 92 4c 9f 3e 55 53 59 3d 5b f5 72 3d
       0.19751787 0.31113106 0.053057987 0.05931602
0003d0 cb 8f 5e be be 61 32 3e 88 85 99 be a5 34 e7 bd
       -0.2173454 0.17420098 -0.2998469 -0.11289338
0003e0 77 5d 88 bd 8e 99 d7 be 1d fc 34 3d 39 84 d5 3d
       -0.06658452 -0.4210934 0.044185746 0.1042561
0003f0 4c e5 5b 3e e0 ce 42 be 69 81 2c bf df 27 d3 3d
       0.21474189 -0.19024229 -0.67384964 0.10310339

feature_layer.2.bias f4 [64]
000000 50 e1 e4 bc 44 01 46 bd aa bb 92 bd 31 40 62 bc
       -0.027939469 -0.04834105 -0.071647 -0.01380925
000010 de e2 13 3c 46 08 6e bd 7a 89 67 bd d1 7d 1c 3e
       0.009026257 -0.05811336 -0.056527592 0.1528237
000020 fb ef 1a be 46 15 2c be 79 49 d8 bd 5a f6 ab bc
       -0.15130608 -0.1680499 -0.10560889 -0.020991493
000030 78 53 cc bc 4e 4d 94 bd ff 00 92 bd b5 89 8d bc
       -0.024942145 -0.07241307 -0.07129096 -0.017277578
000040 80 cb ff 3c 9d 64 b3 3d 3d 1f f9 bd 04 77 15 bb
       0.031224966 0.08759425 -0.12164161 -0.0022806535
000050 ca 76 08 be a6 d5 71 bc 8c f5 08 be 2c 5b 44 3e
       -0.13326564 -0.01476041 -0.13374919 0.19175404
000060 86 99 43 3d ae e7 b7 3d 20 d8 74 3d 3d 5e 3e 3c
       0.047753833 0.08979736 0.059776425 0.011619148
000070 16 8c bf bd b3 cf f1 3c 2f 1a 2e 3d 63 01 93 bd
       -0.09352891 0.029517984 0.04250544 -0.07177999
000080 93 ad f2 bc 83 70 08 3d cb 09 b3 bd 65 1d a7 bd
       -0.029623782 0.033310425 -0.08742102 -0.081599034
000090 dc 11 c1 3d 79 40 c0 bd fc ee 51 bc f5 63 69 bc
       0.094272345 -0.09387297 -0.012813326 -0.014245023
0000a0 40 02 f2 bd 08 e3 74 bb 87 a5 70 bd ca d1 9c 3d
       -0.118168354 -0.0037366766 -0.05875161 0.076572016
0000b0 67 f7 3a 3c 1a 19 06 bd 73 58 c9 3d 51 75 ee bd
       0.011411524 -0.032738782 0.098313235 -0.1164347
0000c0 7f a9 0f be a6 db 1b be d3 4a d3 3d b0 5c d7 bd
       -0.14029501 -0.15220508 0.10317006 -0.105157256
0000d0 b1 11 a2 bd 10 70 9b bd 54 76 04 3d d9 42 43 3d
       -0.079135306 -0.075897336 0.03233941 0.047671173
0000e0 d4 4f 49 be 3c 44 f2 3c 0c b2 82 bd 60 ef cb 3d
       -0.19659358 0.029573552 -0.06381616 0.099577665
0000f0 a4 af 48 3c 3f 14 66 bd 6c 32 b1 3d 6e cb 6c 3d
       0.012248907 -0.056171652 0.08652195 0.057811193

value_layer.0.weight f4 [64, 64]
000000 16 fd 24 3d c5 0b 6a be 72 4f 1e be a2 4b 20 3d
       0.040280424 -0.22856052 -0.15459993 0.03913463
000010 66 7d 1a 3e f9 bd ac bd 04 12 fe 3d 53 4a f3 be
       0.15086898 -0.08434672 0.1240578 -0.47517642
000020 81 9c 77 be 1f 6b 13 3e e5 cc cc bd 34 b8 6b be
       -0.24180795 0.14396332 -0.10000018 -0.23019487
000030 63 2b bd 3d 03 9e c1 bd dd 60 15 bd 38 7a 89 be
       0.09236791 -0.094539665 -0.03646933 -0.26851058
000040 00 e8 2b bd c1 00 71 bd af 6a a5 3d e1 d5 8b 3e
       -0.0419693 -0.05883861 0.08076989 0.27311614
000050 59 73 96 be cd e7 e0 be 66 ca 28 3e dd 2a 3f bd
       -0.29384878 -0.4392685 0.16483459 -0.046671737
000060 ac 0b 2c 3c 2b 03 bc 3d 2d 10 4a be 2f eb 2b be
       0.01050083 0.09180292 -0.19732733 -0.16788934
000070 60 07 33 be a3 a9 20 3d 3e 91 35 bf 2f 91 18 bc
       -0.17483282 0.03922428 -0.70924747 -0.009311958
000080 51 23 cc bd 70 ad aa bd 6a 53 fc 3c a9 e9 8b 3e
       -0.099676736 -0.08333862 0.030801494 0.27326706
000090 54 ba 5e bd d7 0f 61 bd 36 33 43 be 94 3f 95 be
       -0.054376915 -0.054946747 -0.19062504 -0.2915007
0000a0 fd 99 72 3e f7 d4 b2 bc c2 01 a7 bd 2f e9 80 be
       0.23691554 -0.021830065 -0.08154632 -0.25177905
0000b0 65 27 3e 3d 06 2e f8 bd 23 3d 8b be 29 14 46 3b
       0.04642429 -0.12118153 -0.2719508 0.0030224419
0000c0 74 24 93 be d5 a2 16 3d d9 da 8b be 88 fe a1 be
       -0.2873875 0.036776382 -0.27315405 -0.31639504
0000d0 3d aa 03 be 52 e0 69 be 43 8c 8c 3e b8 b9 21 3e
       -0.1285791 -0.22839478 0.2745076 0.15793502
0000e0 a4 79 4c be ee 98 ae 3d a5 fd 6e 3e a7 06 49 be
       -0.19968277 0.08525263 0.23338945 -0.19631444
0000f0 7b 0e 66 be b1 df 46 3e 50 da 31 bf 9a f5 1d bf
       -0.22466461 0.19421269 -0.69473743 -0.61702883
000100 22 bf 51 be ee 1a ca 3d d6 2e b6 be 51 55 8a 3d
       -0.20483068 0.09868418 -0.35582608 0.06754554
000110 2f 87 36 be 16 f7 18 3e 28 f0 69 3e ce b7 9a bd
       -0.17825006 0.14938006 0.22845519 -0.07554589
000120 74 6b 74 3b 5a f2 a4 bd 01 b9 40 bd 18 86 86 bd
       0.0037295492 -0.080540374 -0.047051433 -0.06568545
000130 88 40 13 3d ce 3c 21 3e 0b d8 3d bd 68 25 f3 3d
       0.035950214 0.15745851 -0.046348613 0.11872369
000140 db 09 c0 bc f8 49 61 3d b5 fa 78 3b c5 2e a9 3c
       -0.0234422 0.055002183 0.003799123 0.020652184
000150 d3 ca 03 3e 60 4f 1d 3e 80 1f 71 3e a1 18 f6 bd
       0.1287034 0.1536231 0.23547173 -0.12016416
000160 40 f2 33 3e 5f 84 16 3e 2b 9a a8 3d d0 48 50 3e
       0.1757288 0.14698933 0.0823253 0.20340276
000170 f4 5b d4 3d e5 9d ab bd 74 46 6e bd bb 5f cf bd
       0.10369101 -0.08379725 -0.058172658 -0.10125681
000180 2e 7a 9a be c4 b0 18 3e f9 b0 ed bb c7 5b 3b bf
       -0.3017134 0.1491118 -0.007253763 -0.73186916
000190 0e 00 8f 3e df 2c 22 bd 85 ba f7 3d ad 84 82 3d
       0.2792973 -0.039593574 0.12096123 0.06372962
0001a0 c6 c6 04 be 09 86 5d 3d c7 3e 42 3d f2 42 06 bc
       -0.12966451 0.054082904 0.04742315 -0.008194672
0001b0 cc 90 9c 3c 74 38 cb bd a6 88 5f bd e0 29 76 3c
       0.019112013 -0.09922877 -0.054573677 0.015024632
0001c0 8a 9d 92 3e b0 d8 87 3c 36 6c d0 bc c1 9a 1b bd
       0.28635818 0.016582817 -0.025442224 -0.03798938
0001d0 81 49 90 3c 0f 6d 81 3e 3a 6b 63 3d c2 e5 20 be
       0.017613174 0.25278518 0.05552218 -0.15712646
0001e0 50 f6 45 3e 4d 2c 1d 3e 53 16 c3 3c 7e a4 f1 bd
       0.19332242 0.1534893 0.023814356 -0.117989525
0001f0 40 f4 a3 3d d9 13 31 3e 2a 0b 52 3e 7f 52 98 be
       0.08005571 0.17292728 0.20512071 -0.2975044
000200 2a 27 01 bc d4 52 2a 3d 28 c6 89 3d 10 9b 4d 3e
       -0.007882873 0.041582897 0.067272484 0.20078683
000210 c5 60 17 be 66 76 0a bd 75 8a 7d be ad ba 09 bd
       -0.14783008 -0.03380432 -0.24759848 -0.033625294
000220 36 8f 08 be d3 ce 59 3e 73 29 8d 3d 0b 24 82 3c
       -0.1333588 0.21270303 0.068926714 0.015886327
000230 be d6 b8 3c 4a 97 4a 3e e3 34 e5 bc ea 98 b8 3d
       0.022563335 0.19784275 -0.02797932 0.09013541
000240 16 1c 4c 3d 9e 22 1e 3e 2e b5 c8 3d 4d ee 7d 3d
       0.049831472 0.15442893 0.09800182 0.06199484
000250 7a 9f 9f 3d b5 93 62 3d a6 14 c0 3d 77 e1 3d 3d
       0.077940896 0.055316646 0.093789384 0.0463576
000260 c0 20 bc 3d 09 83 0c bd b5 50 99 bd 0a 0a fa 3d
       0.09185934 -0.034304652 -0.07486097 0.12208946
000270 29 62 95 bd c1 1d 35 3e d6 b9 98 3c 76 1e cf 3b
       -0.07294113 0.17687131 0.018643301 0.00632077
000280 dd 9b f0 3c aa 9f 1f 3e 79 df 4c 3e f7 c2 35 3c
       0.029371196 0.15588251 0.20007123 0.0110938465
000290 67 05 99 3c 24 26 74 3d 62 fc cf 3d 63 45 cb 3c
       0.018679334 0.059606686 0.1015556 0.02481336
0002a0 dd a0 56 3d 2f 5d 92 3c b6 c8 de 3d 97 9c fd 3d
       0.052399505 0.017866699 0.10878126 0.12383383
0002b0 fc 67 20 3e 0f 31 20 bd 25 88 96 3d 75 57 dd bd
       0.15664667 -0.039109286 0.07350186 -0.10807697
0002c0 59 0a ac bd 0e a0 6b bd eb 01 18 bc 84 59 34 3d
       -0.08400411 -0.057525687 -0.009277801 0.04403068
0002d0 52 9c 22 3e cc bb 53 bd e3 4a 51 bd e2 38 89 bd
       0.15879944 -0.05169277 -0.05109681 -0.06700303
0002e0 e9 32 59 3c 4b 16 87 bd b7 7b 31 3b ae a3 19 be
       0.013256767 -0.06596049 0.0027081796 -0.15003845
0002f0 14 64 84 bd 22 0f 2a 3e d7 1e 98 3d 2c f8 b6 bb
       -0.06464401 0.16607335 0.07427757 -0.0055837836
000300 da b4 91 bd a3 c7 82 3e b3 6b d7 3d b5 26 d0 3e
       -0.07114573 0.25542936 0.10518589 0.4065453
000310 a5 1e 78 be a7 ce 38 bc a6 be 00 3e 5c b7 44 3e
       -0.2423044 -0.0112797385 0.12572727 0.19210571
000320 0b 57 ad 3e 95 2c 17 3e bf ae 6a bd 22 3a b8 3e
       0.3385547 0.147631 -0.057295557 0.35981852
000330 18 e2 f7 bc bc a3 13 be 18 27 66 be ee 91 80 3d
       -0.030259177 -0.14417928 -0.2247585 0.06277834
000340 98 67 a8 3e 98 c4 4d 3e 22 c6 25 be 8f 0d ca bd
       0.32891536 0.20094526 -0.16188863 -0.09865867
000350 07 c4 8e 3d 51 b0 ca bd a6 dd 6e be df 83 2a be
       0.06970983 -0.09896911 -0.2332674 -0.16651867
000360 ed f1 4d bd 69 1c 91 be 78 68 ab bb 36 f6 48 3e
       -0.050279547 -0.28341988 -0.0052309595 0.19625172
000370 e3 f0 11 3e 98 f8 a8 3d 1a 73 85 3d 5d 4c aa bc
       0.14252047 0.082505405 0.065160945 -0.020788366
000380 76 4d 73 bd d9 2c a0 3e 67 46 31 3c f9 b1 f5 be
       -0.059400044 0.31284216 0.010820008 -0.47987345
000390 58 f3 9a 3d 7b 1e 9c bd 45 e2 e3 bc c2 b8 fb 39
       0.075659454 -0.07623001 -0.027817855 0.00048012106
0003a0 5e 4b f5 bc 32 e7 2e be 1d 35 af 3d d1 5b 38 be
       -0.029943164 -0.17080382 0.085550524 -0.18003775
0003b0 ca 8d 51 be dc 1a 6b be e6 4f 72 be 4d 60 7f bd
       -0.20464244 -0.22959465 -0.23663291 -0.0623477
0003c0 31 af 4f be c2 35 c6 3d fc 9a b1 3c c9 8f 61 3c
       -0.20281674 0.09678222 0.021680348 0.013767191
0003d0 56 ef 31 3e 12 5d c9 3d 68 a0 07 3e bc 68 83 3d
       0.17376456 0.09832205 0.13244784 0.06416461
0003e0 a4 4d dc bd 57 2a 76 3e 50 0d 6b bd ce ed 33 3d
       -0.10756996 0.24039589 -0.057385743 0.04392796
0003f0 cf 0c 01 be 44 cb 2e bf e2 ed d2 3d e3 3a d4 3d
       -0.12602542 -0.6827891 0.10299279 0.10362794
